4/2/MyBest.pt (torch_old, 193714 bytes, 16 tensors)

conv1.weight f4 [10, 3, 3, 3]
-0.005244678 -0.17782117 -0.06445712 0.067617625 -0.3175485 0.03001006 0.005393819 0.0068009063
-0.0129318945 0.15129875 0.1948749 0.2692889 0.281922 0.03383261 0.19952771 0.28455392
0.20248048 0.22294578 0.21338587 0.04920519 0.0056820773 -0.05203442 -0.06950982 -0.030008435
0.06955256 0.020762062 0.20405257 0.7570246 0.5333369 1.2776662 0.054866344 0.375997
0.78015083 -0.84464645 -1.1110588 -0.55094796 1.2285762 1.0489849 1.1855981 0.036440518
0.4893412 0.19957191 -0.45068982 -1.1260849 -1.1907116 0.6323572 0.454335 0.4109703
-0.3187246 -0.2114541 -0.5715528 -0.94407445 -1.3633165 -1.6342338 1.8686794 1.3184428
-0.55806434 0.38633436 1.3504397 0.06149531 -1.3674263 0.4563112 0.4207629 1.0782042
0.8504474 0.11564298 -1.2714702 0.42409092 0.18799685 -3.5231285 -0.9580978 0.4935467
1.6904662 1.0313963 -0.07395807 -0.4082951 0.500543 0.121484786 -2.6837933 -0.6042764
0.26576847 0.4003236 0.6641196 0.46104208 0.67109025 0.509954 0.037188333 0.6501873
0.5340027 0.27007082 0.15528326 0.26505223 0.11982722 -0.009096141 0.17969283 -0.3312245
-0.10109414 0.29347268 -0.2505909 0.02988698 0.4629944 -0.15721375 0.10388615 0.31019202
-0.5695075 -0.2293175 0.4269421 -0.27525407 -0.65037155 -0.47895283 -0.5446782 -0.22663637
-0.14280242 -0.1938467 -0.4179952 -0.1379768 0.14274618 0.24754733 0.21894239 -0.31328496
0.44672248 0.78916407 0.8757471 0.3864085 1.0290458 0.8416882 -0.5995609 -0.28203604
-0.6826575 0.1868001 0.056752384 0.08277029 -0.012603979 0.3516607 0.3426252 0.58286935
0.47487634 0.2824428 0.13828355 0.14219883 -0.030649884 0.09122326 0.1901485 0.13952129
0.17222266 0.19307289 0.10777784 -0.10111864 0.36375082 0.15135208 -0.36568967 0.54325104
0.23545712 0.16037874 0.024724556 -0.24384853 -0.22223268 0.16190389 0.033895355 -0.24287109
0.25494745 0.27219987 -0.0030440046 -0.053278 -0.3685243 0.15010387 -0.18765897 -0.2783202
-0.16607228 -0.21846457 -0.41276336 0.28189793 0.08462018 -0.035024244 0.607467 0.3536726
0.1653795 0.34751022 0.05099558 0.15405828 -0.3582546 -0.45576635 -0.6761788 -0.1662317
-0.45074695 -0.2331204 -0.41736516 -0.5072132 -0.48663688 -1.350909 -1.3718369 -1.2019908
-1.2317218 -0.5444843 -0.19755228 -0.25741532 0.56902575 0.2653558 -0.17808014 -0.9885807
-0.94203246 0.07360385 0.8308836 0.42209163 1.860329 2.2548537 1.5790827 -1.1143194
-1.4272588 -1.4713824 -0.38646138 0.22103423 -0.059786476 1.1958048 1.9604951 1.4071997
1.2323817 -0.64338547 1.361016 1.5996035 -1.4631743 0.48002255 1.1547812 -0.10733604
0.8017821 0.006395058 -2.3235414 -0.37627232 0.32292145 -3.0599935 -1.5233923 0.32216772
-1.2111098 -0.94571847 1.1734912 -1.1737412 0.37397742 1.7308239 -1.7285525 -0.33696267
1.7318052 0.0006366405 0.61360747 -1.2085322 -0.8911332 -0.2721762 -1.2526861 -0.06508275
-0.34137258 -0.01898159 0.39759088 0.048563845 -1.5142494 -0.53277284 0.52876836 -1.1691664
00000000: 8cdb abbb c116 36be 1802 84bd 1c7b 8a3d
00000010: b895 a2be a8d7 f53c a2be b03b 23da de3b
00000020: 4ce0 53bc 0fee 1a3e 498d 473e 3ce0 893e
00000030: 1558 903e 1094 0a3d fe50 4c3e 0db1 913e
00000040: 0b57 4f3e e64b 643e d381 5a3e 628b 493d
00000050: b830 ba3b 0b22 55bd 2a5b 8ebd 40d4 f5bc
00000060: 9371 8e3d 3315 aa3c 28f3 503e 5dcc 413f
00000070: c488 083f 918a a33f 88bb 603d ae82 c03e
00000080: f7b7 473f c03a 58bf 2d37 8ebf ed0a 0dbf
00000090: fc41 9d3f 2345 863f aec1 973f a742 153d
000000a0: ee8a fa3e 945c 4c3e d1c0 e6be 8d23 90bf
000000b0: 3d69 98bf 29e2 213f 999e e83e b36a d23e
000000c0: df2f a3be 6c87 58be 4951 12bf ddae 71bf
000000d0: 2881 aebf 932e d1bf e330 ef3f bcc2 a83f
000000e0: 4edd 0ebf 9ecd c53e 35db ac3f 82e2 7b3d
000000f0: d307 afbf 9fa1 e93e 3c6e d73e 9802 8a3f
00000100: ecb6 593f 3ad6 ec3d 89bf a2bf 7222 d93e
00000110: 3f82 403e f07a 61c0 e645 75bf 27b2 fc3e
00000120: 3261 d83f cb04 843f 5477 97bd 0e0c d1be
00000130: 9623 003f 04cd f83d 45c3 2bc0 dcb1 1abf
00000140: ce12 883e 37f7 cc3e be03 2a3f b50d ec3e
00000150: 92cc 2b3f 588c 023f cb52 183d ad72 263f
00000160: 67b4 083f b946 8a3e 9302 1f3e edb4 873e
00000170: f967 f53d fb07 15bc 6601 383e 4296 a9be
00000180: 720a cfbd 0d42 963e 734d 80be 8ad5 f43c
00000190: 9a0d ed3e a4fc 20be 43c2 d43d 7dd1 9e3e
000001a0: 3ecb 11bf 35d2 6abe 2898 da3e 1aee 8cbe
000001b0: c07e 26bf 4e39 f5be 0870 0bbf 5d13 68be
000001c0: cc3a 12be c07f 46be 7803 d6be ca49 0dbe
000001d0: 0e2c 123e 0c7d 7d3e 6f32 603e e366 a0be
000001e0: cfb8 e43e a806 4a3f f630 603f 56d7 c53e
000001f0: c6b7 833f e178 573f d37c 19bf 0767 90be
00000200: a4c2 2ebf 8748 3f3e 3075 683d 7883 a93d
00000210: eb80 4ebc df0c b43e 926c af3e ed36 153f
00000220: fe22 f33e 589c 903e 349a 0d3e 929c 113e
00000230: 7715 fbbc 43d3 ba3d 4ab6 423e abde 0e3e
00000240: 235b 303e e6b4 453e a1ba dc3d 4a17 cfbd
00000250: 8c3d ba3e 0afc 1a3e ad3b bbbe 8012 0b3f
00000260: ac1b 713e 533a 243e 278b ca3c 6eb3 79be
00000270: f790 63be 22ca 253e dbd5 0a3d 33b3 78be
00000280: 7988 823e c85d 8b3e ec7d 47bb 083a 5abd
00000290: 38af bcbe d4b4 193e ac29 40be fc7f 8ebe
000002a0: da0e 2abe 2db5 5fbe b855 d3be ed54 903e
000002b0: 584d ad3d 9575 0fbd f582 1b3f 9314 b53e
000002c0: 3e59 293e dcec b13e bee0 503d 74c1 1d3e
000002d0: 266d b7be 355a e9be 0e1a 2dbf a538 2abe
000002e0: 4ec8 e6be 1db7 6ebe e3b0 d5be b9d8 01bf
000002f0: 7828 f9be 96ea acbf 5a98 afbf d6da 99bf
00000300: 0fa9 9dbf 5363 0bbf 254b 4abe f1cb 83be
00000310: acab 113f b7dc 873e a45a 36be a013 7dbf
00000320: 0a29 71bf 9ebd 963d cab4 543f 651c d83e
00000330: 431f ee3f 864f 1040 621f ca3f 05a2 8ebf
00000340: 6bb0 b6bf 4256 bcbf 44de c5be cc56 623e
00000350: aae2 74bd 2210 993f 81f1 fa3f 1f1f b43f
00000360: afbe 9d3f e9b4 24bf c635 ae3f cfbf cc3f
00000370: 4c49 bbbf 84c5 f53e dfcf 933f ffd2 dbbd
00000380: 9741 4d3f a28d d13b e7b4 14c0 c4a6 c0be
00000390: f655 a53e efd6 43c0 85fe c2bf 2bf3 a43e
000003a0: a505 9bbf 9b1a 72bf f634 963f 273d 96bf
000003b0: f879 bf3e a38b dd3f 3541 ddbf 5f86 acbe
000003c0: cbab dd3f 39e4 263a 6115 1d3f 2fb1 9abf
000003d0: 4e21 64bf ae5a 8bbe 0558 a0bf 1b4a 85bd
000003e0: 63c8 aebe 487f 9bbc 0891 cb3e e2ea 463d
000003f0: edd2 c1bf cd63 08bf 5d5d 073f 3fa7 95bf

conv1.bias f4 [10]
0.054428335 0.05859433 0.045772653 0.1596227 -0.07993005 -0.081249595 -0.16676594 -0.007894868
-0.09118 0.0077090627
00000000: 3ff0 5e3d 9c00 703d 1b7c 3b3d 2274 233e
00000010: 5eb2 a3bd 3066 a6bd b1c4 2abe 7a59 01bc
00000020: 94bc babd 4e9c fc3b

conv2.weight f4 [10, 10, 3, 3]
0.029659694 0.023839599 0.01224426 0.17498864 0.001456239 -0.042560183 -0.06842778 0.0978242
-0.054159157 0.3747486 0.11642269 -0.6536185 0.46978518 1.3623227 0.15128072 -0.7813961
-1.0395141 -0.77268684 -0.37271833 0.9466281 -0.35712633 0.06928462 1.6231292 -0.3242476
0.3117397 -0.16923928 -1.3194721 0.32222182 0.05673633 0.029743798 0.2714726 0.06834233
0.21096826 -0.05382116 -0.08747832 0.10696086 -0.10743207 0.07258023 -0.29417023 0.16914412
0.02739275 -0.27283433 -0.41474524 -0.18122567 -0.28758007 -0.1231864 -0.28244302 -0.24657321
0.09353948 0.17934963 0.13292502 0.00059507386 0.18220301 0.017196609 -0.12993687 -0.18867402
0.013751205 0.06560477 0.00050366495 -0.019937169 -0.006356394 -0.09303832 0.10841152 -0.94612604
0.32059646 0.58805484 -0.02380073 0.15567192 -0.87239385 -0.5932307 1.1539513 -0.10405127
0.07651797 0.5083496 1.6864252 1.4421756 0.8296981 0.0052133976 0.4354202 -0.23875755
0.1080726 -0.7598726 -0.33964854 0.1120213 -0.03211056 1.0900313 -0.77421457 -0.43903238
1.6561137 -0.72248614 -0.034105647 -0.007991469 -0.25952655 0.1390439 0.19996832 -0.056620575
0.06522601 0.29429018 0.20024982 -0.9969918 -1.2034506 -0.16298252 -0.38814616 -0.8215836
-0.6462217 1.021691 0.6640176 -0.4166834 -0.5737782 -0.5051923 -0.62919235 -0.10670789
-0.45137444 -1.1079443 0.73430604 0.8904182 0.40332755 -0.51262003 -0.12819077 -0.16464384
-0.33697185 -0.104460485 0.06670925 -0.17030755 -0.15384255 0.00843705 -0.097579956 -0.029959416
-0.7536707 0.07034628 0.44190386 0.18322185 -0.11169087 0.35692757 0.86215174 -0.12211441
-0.21485719 -0.38226464 -0.13653494 -0.09914384 -0.24480094 0.16971928 0.16149965 0.37186298
0.15619731 0.06304136 -0.1443928 0.015703531 0.038595952 -0.15770684 0.3439372 0.15137683
0.121941045 -0.21495475 0.13346897 -0.81050557 -0.12370318 1.5637963 1.3956572 -1.3749288
-0.6341884 1.0846204 -0.050592702 0.99846154 1.2124336 -0.21486288 0.037331205 1.2335844
-1.2720882 -1.6047847 -0.8742266 0.119940825 -0.23208928 0.27608484 0.51678693 -0.115599684
0.07836267 -0.48727432 -0.54461354 -0.8538168 0.35957977 0.16720422 0.27853134 0.44347426
0.06387817 0.103861056 0.39680186 -0.015145581 -0.15308242 -0.4902783 -0.16992986 -1.0781841
-0.51791155 1.51673 -0.26176336 0.49717763 0.4217855 0.13936228 -0.85560924 0.91416955
-0.20414405 -1.1072537 1.068921 1.5032787 -0.3159811 -0.64327586 0.31871063 0.12013467
0.13916658 0.19805957 -0.12211408 -0.22662738 0.17572999 -0.31381986 -0.077617384 0.032839503
0.14790621 -0.26437145 -0.29859138 0.42998987 -0.30492285 -0.251353 0.33940318 -0.037111245
-0.25972673 -0.0055187196 -0.029890047 -0.08289942 -0.008494391 0.16730969 -0.10416618 0.0071930084
-0.0010925835 0.1896637 -0.07158073 -0.4911321 -0.5430125 0.19451171 -0.24698861 -0.5797179
0.34601757 0.06430729 -0.16382396 -0.3303697 -0.46983704 -0.7003893 0.5839427 -0.44245943
-0.8302467 -0.13051157 0.1518841 -1.1727011 -1.0356252 -2.3463476 -1.066599 0.035486832
00000000: e3f8 f23c 434b c33c 269c 483c 3930 333e
00000010: 46df be3a 9653 2ebd dd23 8cbd 0e58 c83d
00000020: fed5 5dbd 0cdf bf3e 056f ee3d 8b53 27bf
00000030: af87 f03e 9760 ae3f 55e9 1a3e 9309 48bf
00000040: cc0e 85bf cece 45bf f0d4 bebe 3856 723f
00000050: 43d9 b6be 18e5 8d3d b3c2 cf3f c803 a6be
00000060: 599c 9f3e 104d 2dbe 76e4 a8bf 42fa a43e
00000070: 5b64 683d 44a9 f33c 75fe 8a3e 10f7 8b3d
00000080: 1008 583e 9473 5cbd d527 b3bd 4c0e db3d
00000090: 5805 dcbd f2a4 943d 7b9d 96be 1e34 2d3e
000000a0: c366 e03c f1b0 8bbe 7d59 d4be 3993 39be
000000b0: b23d 93be 2749 fcbd 5f9c 90be b07d 7cbe
000000c0: a091 bf3d 6ea7 373e 7f1d 083e bbfe 1b3a
000000d0: 6d93 3a3e e7df 8c3c 2c0e 05be c333 41be
000000e0: bc4c 613c cb5b 863d 6208 043a 4653 a3bc
000000f0: 4c49 d0bb e08a bebd dc06 de3d 5135 72bf
00000100: 3825 a43e c38a 163f c0f9 c2bc 7668 1f3e
00000110: 3455 5fbf f8dd 17bf adb4 933f d518 d5bd
00000120: 74b5 9c3d 3323 023f c8dc d73f 3699 b83f
00000130: 1867 543f 26d5 aa3b 65ef de3e dc7c 74be
00000140: 2b55 dd3d 0387 42bf 6ae6 adbe 6c6b e53d
00000150: 5d86 03bd 2586 8b3f ed32 46bf dac8 e0be
00000160: 89fb d33f daf4 38bf 5db2 0bbd a7ee 02bc
00000170: aae0 84be 8661 0e3e 7fc4 4c3e faea 67bd
00000180: 3795 853d 34ad 963e 4a0e 4d3e db3a 7fbf
00000190: ab0a 9abf e4e4 26be 18bb c6be 4e53 52bf
000001a0: c96e 25bf c5c6 823f 0ffd 293f 8757 d5be
000001b0: 21e3 12bf 4854 01bf c012 21bf ab89 dabd
000001c0: 8d1a e7be 1ed1 8dbf 7bfb 3b3f 72f2 633f
000001d0: f380 ce3e 113b 03bf 7144 03be 6598 28be
000001e0: 9387 acbe 61ef d5bd dc9e 883d 1a65 2ebe
000001f0: e788 1dbe 8d3b 0a3c 00d8 c7bd 736d f5bc
00000200: 90f0 40bf b611 903d 3941 e23e 829e 3b3e
00000210: 2fbe e4bd 36bf b63e fab5 5c3f 1f17 fabd
00000220: 8603 5cbe 31b8 c3be d1cf 0bbe ed0b cbbd
00000230: 19ad 7abe e4ca 2d3e 2a60 253e d364 be3e
00000240: 30f2 1f3e d41b 813d b5db 13be b1a4 803c
00000250: ca16 1e3d e77d 21be 8918 b03e 8702 1b3e
00000260: 3abc f93d 191d 5cbe 17ac 083e 4b7d 4fbf
00000270: 1858 fdbd 7a2a c83f e5a4 b23f abfd afbf
00000280: 2c5a 22bf d7d4 8a3f 4b3a 4fbd 2d9b 7f3f
00000290: 0631 9b3f 0405 5cbe 9be8 183d 18e6 9d3f
000002a0: c9d3 a2bf 9669 cdbf 51cd 5fbf 89a3 f53d
000002b0: d0a8 6dbe fe5a 8d3e 264c 043f 87bf ecbd
000002c0: 9c7c a03d 057c f9be cb6b 0bbf bd93 5abf
000002d0: d71a b83e 9537 2b3e a99b 8e3e 0f0f e33e
000002e0: 8fd2 823d 1bb5 d43d 9d29 cb3e 2c25 78bc
000002f0: a3c1 1cbe c205 fbbe 1802 2ebe f001 8abf
00000300: da95 04bf 3524 c23f d905 86be 118e fe3e
00000310: 45f4 d73e fcb4 0e3e 3509 5bbf 0407 6a3f
00000320: 230b 51be 7dba 8dbf 67d2 883f 706b c03f
00000330: 46c8 a1be baad 24bf 0a2e a33e 2a09 f63d
00000340: af81 0e3e 21d0 4a3e f216 fabd 0211 68be
00000350: 90f2 333e ffac a0be ddf5 9ebd b782 063d
00000360: ba74 173e b25b 87be f8e0 98be a227 dc3e
00000370: d91e 9cbe 57b1 80be 41c6 ad3e f601 18bd
00000380: e7fa 84be 60d6 b4bb f9db f4bc 2cc7 a9bd
00000390: 0f2c 0bbc 3b53 2b3e 1455 d5bd 54b3 eb3b
000003a0: 0535 8fba 3337 423e eb98 92bd ab75 fbbe
000003b0: de02 0bbf 142e 473e 95ea 7cbe 6468 14bf
000003c0: 3729 b13e 8ab3 833d 78c1 27be 3826 a9be
000003d0: 7b8e f0be b74c 33bf 457d 153f 0b8a e2be
000003e0: 0c8b 54bf d3a4 05be 8187 1b3e 121b 96bf
000003f0: 5e8f 84bf 8f2a 16c0 5186 88bf a45a 113d

conv2.bias f4 [10]
-0.10280788 0.10100957 0.044427447 0.04353264 0.017946456 0.05289337 0.037432328 0.05146924
0.06592443 0.0149472365
00000000: f08c d2bd 1bde ce3d 8ef9 353d 484f 323d
00000010: 7204 933c b8a6 583d a452 193d 69d1 523d
00000020: 6303 873d 41e5 743c

conv_bn.weight f4 [10]
2.1970599 2.893757 2.5543544 2.7055697 2.935541 2.5808349 2.5375154 2.9192488
2.2104805 3.2451608
00000000: a19c 0c40 5133 3940 8b7a 2340 0e28 2d40
00000010: e7df 3b40 662c 2540 a766 2240 f9d4 3a40
00000020: 8378 0d40 b7b0 4f40

conv_bn.bias f4 [10]
-2.0621874 -1.0477325 0.32487178 -0.17602386 0.14082913 -0.37671238 -1.875853 0.5502223
-0.2671746 -0.906251
00000000: e1fa 03c0 191c 86bf 9855 a63e 993f 34be
00000010: 8335 103e 72e0 c0be f31b f0bf 5edb 0c3f
00000020: 1ccb 88be 1100 68bf

conv_bn.running_mean f4 [10]
2.470136 -3.470757 -6.6161685 -9.728827 -6.332557 -3.9359365 -5.6251173 -9.150536
0.3195233 -8.595665
00000000: b516 1e40 e220 5ec0 a7b7 d3c0 47a9 1bc1
00000010: 4fa4 cac0 62e6 7bc0 f600 b4c0 9868 12c1
00000020: 8f98 a33e d887 09c1

conv_bn.running_var f4 [10]
95.43673 185.16853 131.0742 107.83266 137.4832 109.4293 159.18059 175.50325
106.414276 133.15173
00000000: 9bdf be42 252b 3943 ff12 0343 52aa d742
00000010: b37b 0943 cddb da42 3b2e 1f43 d580 2f43
00000020: 1cd4 d442 d826 0543

fc1.weight f4 [32, 1440]
-0.008456185 0.006806685 -0.10074781 -0.036446232 0.07349938 0.16130811 0.46751362 0.46631262
-0.09931233 -0.00192836 0.05559699 -0.03561638 0.044369083 -0.09109418 0.1566042 -0.09293753
-0.012711496 0.0019782854 -0.03250884 0.21685378 -0.06549725 -0.060245786 -0.041311163 -0.014246649
0.114683636 -0.041364517 0.0145341735 -0.15447308 -0.29579303 -0.3373771 -0.34086108 -0.055568725
-0.11734373 0.07611326 0.21839029 -0.044563457 0.17248222 0.18098304 0.0066503077 -0.27004683
0.053254727 0.16024922 0.21530348 -0.16820405 -0.19824775 -0.23247835 0.07254923 -0.17278858
0.25078034 0.024875391 0.3072268 0.101749234 0.26306066 0.15822372 0.2407216 0.03934762
-0.50333136 -0.37991166 -0.084374845 -0.1207014 -0.00850678 0.14063545 -0.04532909 0.085340634
0.29861873 0.065273955 -0.23519026 -0.1277417 0.1370303 0.045242812 0.1971217 -0.33826357
-0.07208099 -0.21289892 -0.21206747 -0.40778738 -0.3906113 -0.37950242 0.052052464 0.25339803
0.09138946 0.119912416 -0.108181916 -0.039091997 0.014140657 -0.17954613 -0.18700601 0.13421322
0.060748596 0.003905031 0.24925679 -0.26385853 -0.06637597 -0.027321752 -0.07349382 -0.3205812
0.16365197 -0.08766385 -0.29024896 -0.23927318 0.13311549 0.04880889 -0.093375556 -0.30353984
-0.04056389 0.40455377 -0.06301091 -0.12902698 0.21414475 0.057096228 -0.07314937 0.19348577
0.48797366 0.03469837 0.06134489 0.42692074 0.301803 0.3024606 0.12427105 -0.079904094
0.11712897 0.01941249 0.028103594 -0.0014241453 0.09773447 0.44187367 0.25206095 0.22220044
-0.16046457 -0.36803198 -0.03741197 0.032544736 0.11122966 0.05671726 0.1876702 0.08441147
0.22920358 0.22278644 0.11458752 -0.079857066 0.05123318 0.110631384 0.34879968 -0.06053507
-0.07844667 -0.05009585 0.099497624 -0.028055944 -0.016415773 -0.0021851067 -0.44359076 -0.26423505
0.06306914 0.20824604 -0.048872042 0.011428874 0.10785509 0.14917754 0.12190798 0.029999953
-0.15514755 0.068996884 -0.18464595 -0.06092935 0.05891041 0.19127189 0.17038396 0.19023046
0.08004047 -0.006559923 -0.19288309 0.07615143 0.2836019 0.012989278 -0.106755264 0.020287607
0.008429437 0.24592882 0.41935655 0.15267973 0.24696286 -0.028487748 -0.18133578 -0.34259108
-0.28774798 -0.050634556 -0.03142864 0.25656864 0.16498971 0.0030057775 -0.0039225174 -0.124784224
0.1766655 0.14132755 -0.0714277 -0.08350468 0.1993464 0.021931209 -0.18578352 0.07129679
0.02390198 0.10307133 0.14437035 0.14455406 0.031315457 0.020538008 -0.041210894 0.0045972965
0.016419165 0.13467747 -0.35990256 0.117266774 0.0075746416 0.21825813 0.09464144 0.1541348
0.07134788 0.02655733 0.07958781 0.0011673367 0.07391721 0.3926705 0.17198381 -0.426335
-0.07331959 -0.16474156 -0.15908888 -0.33194098 -0.15887518 -0.47254273 -0.17737865 0.041995104
-0.10584436 0.19131845 0.21935184 0.09736209 0.22602247 0.18942416 0.019035341 0.012686909
-0.055664547 -0.14445154 -0.27354544 -0.13223818 0.03623008 0.4532648 0.06072011 -0.055452317
0.023440937 -0.07140827 -0.21400452 -0.046681747 0.033069547 -0.06536692 -0.1984674 0.071013734
00000000: d08b 0abc 9d0a df3b de54 cebd a548 15bd
00000010: d886 963d f42d 253e f25d ef3e 87c0 ee3e
00000020: 4364 cbbd 06c1 fcba abb9 633d 7be2 11bd
00000030: 5bbc 353d 968f babd da5c 203e 0856 bebd
00000040: e143 50bc 1fa6 013b fd27 05bd eb0e 5e3e
00000050: 6c23 86bd 49c4 76bd e535 29bd c76a 69bc
00000060: 41df ea3d d76d 29bd be20 6e3c 312e 1ebe
00000070: 2f72 97be b1bc acbe 5885 aebe 089c 63bd
00000080: e951 f0bd 45e1 9b3d b4a1 5f3e 2c88 36bd
00000090: 2e9f 303e 9e53 393e d3ea d93b 9443 8abe
000000a0: a121 5a3d 5f18 243e 8478 5c3e af3d 2cbe
000000b0: 7501 4bbe ce0e 6ebe b194 943d 7def 30be
000000c0: 4866 803e 7ac7 cb3c d54c 9d3e e761 d03d
000000d0: e3af 863e 6605 223e b97f 763e f82a 213d
000000e0: 53da 00bf c883 c2be b8cc acbd 4c32 f7bd
000000f0: 0560 0bbc bd02 103e ffaa 39bd 12c7 ae3d
00000100: 8ee4 983e 5aae 853d b7d5 70be b8ce 02be
00000110: ac51 0c3e 8750 393d 45da 493e e230 adbe
00000120: 339f 93bd 2d02 5abe 3728 59be 82c9 d0be
00000130: 34fe c7be 244e c2be f734 553d 63bd 813e
00000140: 662a bb3d a494 f53d 7b8e ddbd ee1e 20bd
00000150: 37ae 673c f1da 37be 817e 3fbe 316f 093e
00000160: 85d3 783d 8ceb 7f3b 2c3d 7f3e 7718 87be
00000170: 20f0 87bd ded1 dfbc ee83 96bd 3823 a4be
00000180: 6294 273e 1b89 b3bd 839b 94be 0704 75be
00000190: 6d4f 083e d5eb 473d af3b bfbd 9369 9bbe
000001a0: 5226 26bd ac21 cf3e dd0b 81bd a61f 04be
000001b0: c348 5b3e bcdd 693d 56cf 95bd 2221 463e
000001c0: afd7 f93e e11f 0e3d c844 7b3d 5b95 da3e
000001d0: ec85 9a3e 1edc 9a3e d281 fe3d c2a4 a3bd
000001e0: 50e1 ef3d f106 9f3c 8239 e63c 63aa baba
000001f0: 0329 c83d 443d e23e 220e 813e 8388 633e
00000200: d350 24be b06e bcbe 4b3d 19bd a14d 053d
00000210: 60cc e33d 5c50 683d 9e2c 403e ecdf ac3d
00000220: 58b4 6a3e 2122 643e ddac ea3d 1a8c a3bd
00000230: e2d9 513d b592 e23d df95 b23e 9ff3 77bd
00000240: a6a8 a0bd 4e31 4dbd 69c5 cb3d 94d5 e5bc
00000250: 5f7a 86bc 0234 0fbb 541e e3be d149 87be
00000260: 652a 813d 733e 553e 0d2e 48bd 2c40 3b3c
00000270: 21e3 dc3d ffc1 183e e4aa f93d 76c2 f53c
00000280: 00df 1ebe 3d4e 8d3d d413 3dbe 0e91 79bd
00000290: 0b4c 713d c7dc 433e 2279 2e3e c6cb 423e
000002a0: 42ec a33d 9ff4 d6bb 2583 45be 48f5 9b3d
000002b0: 4534 913e fbd0 543c 81a2 dabd 3232 a63c
000002c0: 9f1b 0a3c c4d4 7b3e e7b5 d63e 1358 1c3e
000002d0: d5e3 7c3e 235f e9bc 16b0 39be 1968 afbe
000002e0: b453 93be 2e66 4fbd 51bb 00bd f75c 833e
000002f0: 10f3 283e 94fc 443b 7688 80bb df8e ffbd
00000300: cde7 343e 2bb8 103e b048 92bd 8004 abbd
00000310: 7621 4c3e 14a9 b33c 093e 3ebe 0d04 923d
00000320: 16ce c33c 1017 d33d d2d5 133e fb05 143e
00000330: a344 003d 533f a83c c1cc 28bd eba4 963b
00000340: 7c81 863c e4e8 093e 2645 b8be 9029 f03d
00000350: b334 f83b 0f7f 5f3e 5fd3 c13d 83d5 1d3e
00000360: d61e 923d c28e d93c effe a23d 5201 993a
00000370: e861 973d 1c0c c93e 861c 303e 9548 dabe
00000380: 9528 96bd 03b2 28be 32e8 22be 2bf4 a9be
00000390: 2db0 22be 1ff1 f1be c0a2 35be 0f03 2c3d
000003a0: eec4 d8bd fce8 433e c59d 603e c765 c73d
000003b0: 6f72 673e 68f8 413e 01f0 9b3c c1dc 4f3c
000003c0: 8200 64bd 1beb 13be 260e 8cbe 7269 07be
000003d0: fe65 143d 5312 e83e a6b5 783d f821 63bd
000003e0: 3507 c03c 803e 92bd 0024 5bbe 5c35 3fbd
000003f0: ef73 073d 17df 85bd 0a3b 4bbe a66f 913d

fc1.bias f4 [32]
0.006950267 0.0044671423 -0.00040228205 -0.02546856 -0.013498986 -0.01362077 -0.0066417223 -0.0032104412
0.0029422776 -0.011857686 -0.0027761569 0.011055703 0.017155504 -0.015998807 0.0084553445 -0.016748464
-0.020987356 -0.025386252 0.025699848 -0.005800343 0.001240568 0.0035399776 -0.0033719917 0.0039041878
-0.0129875215 -0.0004660226 -0.011959982 -0.011434883 0.016011951 0.016713314 0.018885138 -0.015240639
00000000: 11bf e33b 1b61 923b 62e9 d2b9 71a3 d0bc
00000010: da2a 5dbc a629 5fbc cea2 d9bb 4466 52bb
00000020: 3ad3 403b bd46 42bc 2ff0 35bb fb22 353c
00000030: b389 8c3c ee0f 83bc 4988 0a3c 1334 89bc
00000040: aded abbc d4f6 cfbc 7d88 d23c ce10 bebb
00000050: 8e9a a23a f8fe 673b a2fc 5cbb 67dd 7f3b
00000060: 9dc9 54bc 7f54 f4b9 cdf3 43bc 6059 3bbc
00000070: 7f2b 833c 5cea 883c 01b5 9a3c e0b3 79bc

fc1_bn.weight f4 [32]
1.0423229 1.1135311 1.0576487 0.97320795 1.1105587 0.83703434 0.85268956 0.89106464
1.1032623 0.8555273 0.8893331 0.8073283 1.1129981 1.1109802 1.0611485 0.4717887
1.0448192 1.0480262 0.90714353 1.2327989 1.1254749 0.95372057 0.9255498 1.0440617
1.1731447 1.1597689 0.9487436 1.307632 0.9962075 1.0572509 1.070989 1.1414862
00000000: d66a 853f 3088 8e3f 0861 873f 2824 793f
00000010: ca26 8e3f e247 563f dd49 5a3f d01c 643f
00000020: b337 8d3f d603 5b3f 56ab 633f 11ad 4e3f
00000030: b976 8e3f 9934 8e3f b7d3 873f 4a8e f13e
00000040: a3bc 853f b925 863f 8f3a 683f 5bcc 9d3f
00000050: 900f 903f 0827 743f d5f0 6c3f d0a3 853f
00000060: 9b29 963f 4f73 943f dce0 723f 7c60 a73f
00000070: 7407 7f3f ff53 873f 2b16 893f 381c 923f

fc1_bn.bias f4 [32]
0.7174057 0.58030444 0.69372433 0.65568006 0.92282724 0.5157785 0.3055272 0.6156459
0.7151613 0.5862928 0.7207094 0.8062795 0.26310855 0.798377 0.3865097 0.2649637
0.7887571 0.6029154 0.48227566 0.4869425 0.5523694 0.40494043 0.78193766 0.5673748
0.39732444 0.62400323 0.59349895 0.19347146 0.67192334 0.66469467 0.54555 0.6647255
00000000: e6a7 373f d58e 143f eb97 313f a6da 273f
00000010: 683e 6c3f 0f0a 043f 106e 9c3e f89a 1d3f
00000020: d014 373f 4917 163f 6980 383f 5568 4e3f
00000030: 2ab6 863e 6f62 4c3f 99e4 c53e 52a9 873e
00000040: fceb 493f aa58 1a3f d6ec f63e 8750 f93e
00000050: 1568 0d3f 5a54 cf3e 112d 483f 7a3f 113f
00000060: 1c6e cb3e adbe 1f3f 8cef 173f 621d 463e
00000070: 2b03 2c3f 6e29 2a3f 2aa9 0b3f 732b 2a3f

fc1_bn.running_mean f4 [32]
-31.846003 -0.06220963 -1.4414032 13.664644 -13.704061 -5.853756 -5.412914 35.82985
9.057656 -11.308682 7.017591 -2.7388797 -0.34555033 3.120733 -11.587396 -35.811535
-7.0649133 30.61251 -3.5077841 -12.48705 5.1066236 16.369015 2.5525174 0.4250121
2.8480525 -1.3150948 8.056947 -19.321257 -42.101856 -16.92282 31.847193 5.0167556
00000000: 9dc4 fec1 86cf 7ebd e67f b8bf 62a2 5a41
00000010: d543 5bc1 f851 bbc0 9736 adc0 c451 0f42
00000020: 29ec 1041 5df0 34c1 1b90 e040 ce49 2fc0
00000030: f9eb b0be 17ba 4740 f965 39c1 033f 0fc2
00000040: c513 e2c0 6ce6 f441 897f 60c0 f5ca 47c1
00000050: 7669 a340 bef3 8241 725c 2340 309b d93e
00000060: 7e46 3640 0755 a8bf 41e9 0041 ef91 9ac1
00000070: 4d68 28c2 ef61 87c1 0dc7 fe41 4389 a040

fc1_bn.running_var f4 [32]
428.74985 643.1792 497.56638 452.72662 374.43713 397.6673 3399.3132 825.0966
446.477 319.02972 533.95306 334.92908 329.76526 338.5533 322.70328 3277.6584
511.84372 308.63257 754.55414 655.62695 521.3945 300.3166 338.37918 262.63077
1033.8604 566.4787 398.83844 809.7031 517.1974 443.404 646.07745 974.49976
00000000: fb5f d643 78cb 2044 7fc8 f843 025d e243
00000010: f437 bb43 6ad5 c643 0375 5445 2f46 4e44
00000020: 0e3d df43 ce83 9f43 ff7c 0544 ec76 a743
00000030: f4e1 a443 d346 a943 055a a143 89da 4c45
00000040: ffeb ff43 f850 9a43 77a3 3c44 20e8 2344
00000050: 3f59 0244 8628 9643 8930 a943 bd50 8343
00000060: 883b 8144 a39e 0d44 526b c743 006d 4a44
00000070: a24c 0144 b6b3 dd43 f584 2144 fc9f 7344

fc2.weight f4 [10, 32]
-1.4750682 -0.51147616 -0.28180766 -1.3169957 1.4508857 -1.0090799 0.18082754 -0.018129207
0.31840628 0.70297194 -0.43994388 -0.75480795 -0.8023183 -0.85607123 -1.0216645 0.5042911
0.66639405 0.3695146 0.107775584 0.8349189 0.41691962 -1.2369361 0.81769675 0.74878395
-1.0277271 1.066308 -0.28913778 0.575608 -0.8136824 0.97056323 1.081923 0.84705925
-1.152678 0.6448414 0.5537178 0.5686362 -0.1250063 1.1598003 0.75172347 -1.139154
0.70047426 0.23740855 0.7984672 -0.18485145 0.714407 -1.0113662 -0.47592658 -0.7691289
-0.92153794 0.24145168 -1.3832844 1.0173732 -0.7852399 0.29195863 -0.4408158 1.058108
1.2823673 -1.605325 0.3583452 0.2240258 0.66447675 -0.4881983 0.39314047 -0.2814345
1.2777327 0.60720634 1.0378083 -0.71852446 -0.8551041 -1.3038269 -0.7542084 -0.9409851
1.1644655 -0.41535294 0.6704135 0.36018223 -0.5747458 0.7948602 -1.0873053 0.033722706
1.3379979 -0.039652456 0.43347085 0.42391247 -0.31873387 0.042251043 1.0502908 -1.2269889
-1.7158723 -0.48961538 1.2644205 0.69296825 -0.7243665 -0.77280295 -0.13791768 -1.3239648
-0.46337548 -0.89641356 -0.6666949 -0.24198012 -0.6786906 -0.0330408 0.6365617 -1.0404488
0.3443722 -0.087685496 0.2877474 1.4346629 0.25748482 1.2115505 0.35270894 -0.2884478
0.074560806 1.1207105 0.4696848 -1.5297133 1.0216268 -0.3902604 -0.7420409 -0.60101897
0.38118213 -1.0987616 -1.319188 0.48002073 0.27388704 1.1601757 1.017637 -0.08299883
-0.33224827 -0.42966482 0.78627914 -1.7665778 -0.18596041 -0.08014854 1.0771915 0.9663587
-0.6686567 -1.3449385 1.173018 -1.2543248 -0.5052838 -0.41552073 1.1965023 0.318961
-0.7583684 -0.6495874 0.9192535 0.46945202 0.2688729 0.8387836 0.24708 0.31460267
-0.10700624 -0.4462322 0.2946811 0.80617046 0.009758089 1.06825 -0.57422054 0.94320226
0.22444353 1.1663228 -1.0758251 0.40079868 1.0112325 0.82468104 0.47086775 -0.77900577
-0.45284444 0.21707802 0.4448787 0.8973167 -0.02610418 1.0120547 -1.0875782 -0.27172986
-1.307784 -1.3338562 -1.2066082 -0.6331054 0.6702539 1.0088071 1.2490325 1.3363786
0.54628956 0.19862029 0.36313534 -0.90853316 -1.0341495 -0.58060104 -0.9038958 0.21954584
1.233349 -0.25509936 -0.02874094 0.26763463 -0.8426161 0.40963733 -0.9170819 0.37126073
-1.0741646 0.9016364 -1.6460501 -0.71079713 0.51739556 0.84191865 0.52186066 0.47227538
0.85285795 -1.2023779 0.37790552 0.74420196 -1.1212611 0.16741829 0.03033472 -0.33477888
0.15011987 0.90776473 -1.6370624 0.4898986 1.6316208 0.00013270947 0.74118257 -1.196912
0.57706106 -1.377214 0.6231122 1.3669155 1.010174 1.2228361 -1.2195941 1.3443899
1.1622838 0.22568351 -0.97107506 -0.0885529 -0.32869372 0.14305234 0.5202159 -0.14698336
-0.681098 0.16825156 0.8608281 0.19428174 -1.5043054 0.92125475 -0.67333037 -1.435632
-0.80795735 0.19510686 -0.4108372 -1.7563559 0.48253268 0.55415815 -0.57106847 -1.0921179
00000000: 09cf bcbf 1af0 02bf 1849 90be 5193 a8bf
00000010: 9fb6 b93f 8829 81bf db2a 393e b483 94bc
00000020: 2606 a33e f8f5 333f 5340 e1be 183b 41bf
00000030: bb64 4dbf 7c27 5bbf e7c5 82bf 3919 013f
00000040: cd98 2a3f 0531 bd3e 72b9 dc3d 3fbd 553f
00000050: 7d76 d53e ec53 9ebf 9354 513f 4eb0 3f3f
00000060: 908c 83bf c87c 883f de09 94be 0c5b 133f
00000070: 7d4d 50bf d576 783f 747c 8a3f e0d8 583f
00000080: f48a 93bf 5314 253f 73c0 0d3f 2492 113f
00000090: a701 00be 5674 943f f370 403f cccf 91bf
000000a0: 4852 333f 3a1b 733e 5968 4c3f b349 3dbe
000000b0: 61e3 363f 7374 81bf a6ac f3be a2e5 44bf
000000c0: e9e9 6bbf 1c3f 773e 770f b1bf 4939 823f
000000d0: 7b05 49bf 9a7b 953e 9cb2 e1be 1570 873f
000000e0: 9d24 a43f 4a7b cdbf 0679 b73e 0567 653e
000000f0: 261b 2a3f 21f5 f9be b549 c93e 2f18 90be
00000100: bf8c a33f e071 1b3f e7d6 843f 38f1 37bf
00000110: 1ae8 5abf cde3 a6bf cd13 41bf 66e4 70bf
00000120: 350d 953f 24a9 d4be 38a0 2b3f ce69 b83e
00000130: 8a22 13bf f57b 4b3f d22c 8bbf d220 0a3d
00000140: 8443 ab3f 9d6a 22bd e4ef dd3e 0e0b d93e
00000150: 1631 a3be 6e0f 2d3d ee6f 863f f90d 9dbf
00000160: b4a1 dbbf deae fabe 88d8 a13f 5e66 313f
00000170: 1570 39bf 6ad6 45bf 4b3a 0dbe ae77 a9bf
00000180: 8d3f edbe 5c7b 65bf 84ac 2abf a3c9 77be
00000190: abbe 2dbf ca55 07bd b5f5 223f 6d2d 85bf
000001a0: 8e51 b03e 7494 b3bd a153 933e 09a3 b73f
000001b0: 0dd5 833e 1614 9b3f 4496 b43e 6eaf 93be
000001c0: 56b3 983d 7173 8f3f 877a f03e a5cd c3bf
000001d0: abc4 823f 36d0 c7be 64f6 3dbf 61dc 19bf
000001e0: 4e2a c33e 38a4 8cbf 27db a8bf 47c5 f53e
000001f0: ec3a 8c3e a380 943f ee41 823f 4afb a9bd
00000200: 721c aabe 07fd dbbe 9749 493f 391f e2bf
00000210: 686c 3ebe eb24 a4bd 69e1 893f 4963 773f
00000220: 162d 2bbf f226 acbf 7425 963f b78d a0bf
00000230: 475a 01bf 22bf d4be fd26 993f db4e a33e
00000240: 6e24 42bf 5c4b 26bf 3354 6b3f 045c f03e
00000250: b5a9 893e 86ba 563f 8a02 7d3e 9a13 a13e
00000260: 1626 dbbd 8c78 e4be 71e0 963e 3061 4e3f
00000270: 64e0 1f3c 6abc 883f 1e00 13bf b475 713f
00000280: 86d4 653e 114a 953f a3b4 89bf 7c35 cd3e
00000290: 1170 813f 4c1e 533f 9415 f13e ec6c 47bf
000002a0: 3adb e7be b349 5e3e 24c7 e33e 8cb6 653f
000002b0: 6fd8 d5bc 028b 813f c335 8bbf 2d20 8bbe
000002c0: 7765 a7bf cdbb aabf 2372 9abf 3213 22bf
000002d0: c295 2b3f 9720 813f 4ce0 9f3f 740e ab3f
000002e0: a2d9 0b3f 1e63 4b3e e0ec b93e a195 68bf
000002f0: 035f 84bf 45a2 14bf b765 67bf a0d0 603e
00000300: 61de 9d3f 629c 82be 1f72 ebbc 6807 893e
00000310: b0b5 57bf fcbb d13e e1c5 6abf e315 be3e
00000320: 3a7e 89bf a5d1 663f c5b1 d2bf cdf6 35bf
00000330: 0974 043f fb87 573f a998 053f 14ce f13e
00000340: e654 5a3f 85e7 99bf d57c c13e 0584 3e3f
00000350: 7c85 8fbf b36f 2b3e 8580 f83c 2368 abbe
00000360: 06b9 193e 4563 683f 438b d1bf fdd3 fa3e
00000370: f3d8 d03f ed27 0b39 24be 3d3f 6a34 99bf
00000380: 46ba 133f 8c48 b0bf 4884 1f3f 16f7 ae3f
00000390: 624d 813f e585 9c3f a91b 9cbf f814 ac3f
000003a0: b7c5 943f 9419 673e 6098 78bf 395b b5bd
000003b0: 8b4a a8be 507c 123e df2c 053f ce82 16be
000003c0: 705c 2ebf 234a 2c3e 3b5f 5c3f cbf1 463e
000003d0: 148d c0bf 5ad7 6b3f 615f 2cbf cac2 b7bf
000003e0: 4bd6 4ebf 18ca 473e 4159 d2be 45d0 e0bf
000003f0: 860e f73e 4fdd 0d3f 8b31 12bf 85ca 8bbf

fc2.bias f4 [10]
-0.25930342 0.06272008 0.3134937 -0.22764444 0.10098323 0.18445401 -0.027637871 -0.18307915
-0.18348242 -0.12216987
00000000: 6bc3 84be 6373 803d 3f82 a03e a01b 69be
00000010: 4cd0 ce3d 83e1 3c3e d168 e2bc 1a79 3bbe
00000020: d1e2 3bbe 3234 fabd
