4/2/MyBestSmall.pt (torch_old, 8789 bytes, 8 tensors)

conv1.weight f4 [10, 3, 3, 3]
0	0x3dc9117d	0.09817789
1	0xbdb02ae3	-0.0860193
2	0xbd1d1621	-0.038351182
3	0x3db6d39d	0.08927081
4	0xbe3aaa81	-0.18229105
5	0x3dea2a78	0.114338815
6	0xbd271130	-0.040787876
7	0x3dc61efd	0.09673879
8	0x3cd1d466	0.025613975
9	0xbccb6342	-0.024827603
10	0x3d5508c6	0.05201032
11	0x3c05dc81	0.008170248
12	0x3d8d4614	0.06898132
13	0xbd9c6c67	-0.076378636
14	0xbc7be2fa	-0.01537394
15	0xbc998b96	-0.018743318
16	0x3cd8c88c	0.026462816
17	0xbb0ee8d7	-0.0021806264
18	0x3e2aef03	0.16692738
19	0x3d6f8a15	0.058481295
20	0xbd9590d6	-0.07303016
21	0xbdf0c8e6	-0.11757068
22	0xbd09e5b0	-0.033666313
23	0xbdacce37	-0.0843777
24	0xbd8143ea	-0.06311782
25	0x3bfe5ece	0.0077627664
26	0x3de80614	0.11329284
27	0x3dd7c666	0.105358884
28	0xbe400a2e	-0.18753883
29	0x3df56e7d	0.119839646
30	0x3d5fab58	0.054606766
31	0x3e3bb64e	0.18331262
32	0x3e02bc6e	0.12767193
33	0xbe3292e9	-0.17438854
34	0xbe3a6774	-0.18203527
35	0xbdbc77e1	-0.092025526
36	0x3e2db142	0.1696215
37	0xbd01410d	-0.031556178
38	0x3da9a09b	0.08282586
39	0xbdb5c415	-0.0887529
40	0x3e420609	0.18947615
41	0xbda5a4b9	-0.08088059
42	0x3e149127	0.14508496
43	0x3b4964a7	0.003073016
44	0xbdce4aea	-0.100728825
45	0x3dcb86b1	0.099378
46	0xbdd08b1b	-0.10182782
47	0x3d690bd5	0.05689605
48	0xbd6195ff	-0.055074688
49	0xbca9270f	-0.020648507
50	0xbe3d18e0	-0.1846652
51	0xbdbac08d	-0.091187574
52	0x3dd71f10	0.105039716
53	0xbd3da785	-0.046302337
54	0x3e43eac0	0.19132519
55	0x3e1d85d4	0.15383083
56	0xbc1a7702	-0.009427788
57	0xbe03ed41	-0.12883474
58	0x3def1c6e	0.116753444
59	0x3d72ba17	0.0592595
60	0xbdff7550	-0.124735475
61	0x3dff1058	0.12454289
62	0x3dee5687	0.116375975
63	0x3e2e857b	0.17043106
64	0xbddd88db	-0.10817119
65	0xbd02daed	-0.031947065
66	0xbb825317	-0.0039771902
67	0x3ce3e1cb	0.027817627
68	0xbe15e2b7	-0.14637266
69	0xbe0c0cb7	-0.13676725
70	0x3dd5c58f	0.10438072
71	0xbd3a1f68	-0.045440108
72	0x3dc01e95	0.09380833
73	0x3c300b19	0.010744833
74	0x3d810456	0.06299655
75	0x3d2c8c8a	0.042126216
76	0x3d8ed913	0.06974997
77	0x3dc2e1a8	0.09515697
78	0xbe36a52b	-0.17836444
79	0x3dc5e956	0.09663646
80	0xbe0aca20	-0.13553667
81	0xbe145b48	-0.14487946
82	0x3c463afb	0.012099023
83	0xbd04e5bd	-0.032445658
84	0x3de837e7	0.113387875
85	0xbde39644	-0.11112645
86	0xbe2eda0a	-0.17075363
87	0x3e0fa782	0.14028743
88	0xbce7c799	-0.028293418
89	0x3dde2f83	0.10848906
90	0x3d7cc863	0.06171454
91	0xbe13cdcf	-0.14433978
92	0x3d1e37f9	0.0386276
93	0x3d3ce76d	0.046119142
94	0xbe0406cc	-0.12893218
95	0xbdbb1676	-0.091351435
96	0x3d85f791	0.0654136
97	0x3d0ca842	0.03434015
98	0xbda7e12c	-0.08197245
99	0xbd702564	-0.05862941
100	0x3e343f49	0.17602266
101	0xbd12dee8	-0.03585711
102	0x3ddd86eb	0.10816749
103	0x3daa0d0e	0.08303271
104	0xbdff5116	-0.12466638
105	0xbe280ced	-0.16411181
106	0x3e3cc91a	0.18436089
107	0x3c1eff94	0.009704489
108	0x3e06d7f8	0.13168323
109	0x3d22ccc9	0.03974608
110	0x3d7d2338	0.061801165
111	0x3e12dff2	0.14343241
112	0x3e3a9d73	0.18224125
113	0xbe02e940	-0.1278429
114	0x3cc29a67	0.023755265
115	0x3e12d275	0.14338095
116	0x3e0e9089	0.13922323
117	0x3df47aac	0.1193746
118	0xbe0eb7e3	-0.13937335
119	0xbe0df2f6	-0.13862213
120	0xbdeee37e	-0.116644844
121	0x3cc47647	0.02398218
122	0x3e4451da	0.19171849
123	0xbdf97a87	-0.12181573
124	0x3dd19da0	0.10235143
125	0xbdda7ac1	-0.10667945
126	0xbe396227	-0.18103848
127	0xbd27950c	-0.040913627
128	0x3de32c6f	0.110924594
129	0x3e36c684	0.17849165
130	0xbdf501bf	-0.11963224
131	0x3d2b06fd	0.04175471
132	0x3e29debe	0.16588876
133	0x3e027729	0.12740768
134	0x3df578c8	0.11985928
135	0x3e0c5028	0.13702452
136	0x3df9c76b	0.12196239
137	0x3d4c9c7c	0.049953923
138	0xbe069af4	-0.13145047
139	0xbe254e74	-0.16143209
140	0xbdb422f4	-0.08795729
141	0xbcb6dda5	-0.022322485
142	0xbdf15743	-0.11784222
143	0x3d909693	0.0705997
144	0x3d74dd1b	0.059781175
145	0xbd31a6bc	-0.0433719
146	0x3d97e50b	0.07416733
147	0x3d7f2e28	0.062299877
148	0x3df0eecb	0.11764296
149	0x3e04e680	0.12978554
150	0xbd855edb	-0.06512233
151	0x3e40a34f	0.18812297
152	0xbcb4f6a4	-0.022090264
153	0xbbd0d6c6	-0.0063732592
154	0xbe39c845	-0.18142803
155	0xbdfd38fa	-0.12364383
156	0xbde60343	-0.11231091
157	0xbda83f4b	-0.08215197
158	0x3e0c5018	0.13702428
159	0xbd80ab06	-0.0628262
160	0xbe132951	-0.1437123
161	0x3d97f9e3	0.07420709
162	0x3d7d3c90	0.061825335
163	0x3dffd424	0.124916345
164	0xbdcb7711	-0.099348195
165	0x3d2b5c7c	0.041836247
166	0xbd8f3376	-0.06992237
167	0xbd3040b2	-0.04303045
168	0xbe1d187d	-0.15341373
169	0xbdb3b4c3	-0.08774712
170	0xbd70f1a2	-0.05882419
171	0x3da8865e	0.082287535
172	0x3d104db5	0.035230357
173	0x3d42fa3b	0.04760192
174	0x3e4491a3	0.19196181
175	0x3e3ffe34	0.18749315
176	0x3e066d85	0.13127716
177	0x3bbf05de	0.005829557
178	0xbe089c0a	-0.13340774
179	0x3e19e898	0.15030134
180	0xbd45aee1	-0.04826248
181	0xbc7fd5b8	-0.015614919
182	0xbe29d58f	-0.16585372
183	0xbd1cb301	-0.03825665
184	0xbdfe9c87	-0.12432199
185	0x3e34fb43	0.17673974
186	0xbe2acad5	-0.16678937
187	0xbe1a0182	-0.15039638
188	0xbbdd327b	-0.0067504025
189	0xbdd6e1f4	-0.10492316
190	0x3d8b2f1e	0.06796096
191	0xbd997e96	-0.074948475
192	0xbdbae6dc	-0.09126064
193	0x3c2248df	0.009905069
194	0x3e0db3f1	0.13838173
195	0xbe0b9503	-0.13631062
196	0x3db6f8f5	0.089342035
197	0x3dfb3010	0.122650266
198	0x3e404ab2	0.18778494
199	0xbe0a74ba	-0.1352109
200	0x3d3cf7ea	0.046134867
201	0xbe12337f	-0.14277457
202	0x3e279c54	0.16368228
203	0xbd9a0328	-0.07520133
204	0x3dec583c	0.11540267
205	0x3ba6549b	0.0050760037
206	0xbc7f8264	-0.015595052
207	0xbbd09d03	-0.0063663735
208	0x3d04e372	0.03244347
209	0x3db94c68	0.090477765
210	0x3cfaef2d	0.030631626
211	0x3d6ee01b	0.058319192
212	0xbe3198bb	-0.17343418
213	0x3e0f4818	0.13992345
214	0x3e2b61d0	0.16736531
215	0x3e2283b0	0.15870547
216	0x3e11a464	0.14222866
217	0xbe0e382d	-0.13888617
218	0xbd922c21	-0.07137323
219	0x3e2dc257	0.16968666
220	0xbe1617e2	-0.14657548
221	0x3e32c6f9	0.17458715
222	0xbe1b0a58	-0.15140665
223	0xbe0ae350	-0.13563275
224	0x3dc09c62	0.09404828
225	0xbe0dab77	-0.1383494
226	0xbd34f172	-0.044175573
227	0x3e0f4179	0.1398982
228	0x3e1c11e3	0.15241198
229	0x3e3a5153	0.18195085
230	0xbd204244	-0.039125696
231	0xbe193bbc	-0.14964193
232	0x3e41e64e	0.1893551
233	0xbd285b55	-0.041102726
234	0xbda2525b	-0.07925864
235	0x3d3fc9df	0.04682338
236	0xbe09f0ab	-0.13470714
237	0x3e01815d	0.12647004
238	0x3df6e438	0.12055248
239	0xbe1c7560	-0.1527915
240	0xbe21ea72	-0.1581209
241	0xbc8b2eeb	-0.016990146
242	0x3da55146	0.08072142
243	0xbbb50b3c	-0.005525021
244	0xbdc7cb47	-0.09755569
245	0x3b90f825	0.0044241124
246	0xbe3927d7	-0.18081604
247	0xbe0b3b57	-0.13596855
248	0xbe031ec9	-0.12804712
249	0x3e225646	0.15853223
250	0x3e2dc48f	0.16969512
251	0xbd85cdae	-0.06533371
252	0x3c0ef706	0.008725887
253	0x3dafeb92	0.08589853
254	0x3cbd53e1	0.023111286
255	0xbdc51fe1	-0.09625221

conv1.bias f4 [10]
0	0x3d5ddfb8	0.054168433
1	0x3d74ad72	0.059735723
2	0x3d3a0036	0.045410357
3	0x3e24c5b8	0.16091049
4	0xbda48006	-0.08032231
5	0xbda66978	-0.08125585
6	0xbe2a1297	-0.16608654
7	0xbc1aa540	-0.009438813
8	0xbdba93a3	-0.09110191
9	0x3bff7035	0.0077953585

conv2.weight f4 [10, 10, 3, 3]
0	0xbcb10437	-0.021608455
1	0x3d0f4178	0.034974545
2	0x3dbac098	0.091187656
3	0x3cfece5b	0.031104257
4	0xbd0b15af	-0.033956226
5	0xbd53dc05	-0.0517235
6	0xbdbc4726	-0.09193258
7	0x3db5a6c5	0.088696994
8	0xbca3945d	-0.019968206
9	0x3cae4eed	0.02127787
10	0x3b7f8b6a	0.003899301
11	0xbd899271	-0.067173846
12	0x3d7328f7	0.05936524
13	0x3d71f7dc	0.059074268
14	0x3badfa2d	0.0053093643
15	0xbd755cb3	-0.059902858
16	0xbd3774ba	-0.044789053
17	0x3abe44d9	0.0014516368
18	0xbd76ad42	-0.060223825
19	0xbd70e66e	-0.058813505
20	0xbc80ce98	-0.015723512
21	0xbcf8a4f6	-0.030352097
22	0x3cd3fb4d	0.025876665
23	0xbce2f5e6	-0.027705144
24	0xbc64f00c	-0.013973247
25	0xbd24cb0e	-0.04023271
26	0xbdc54851	-0.09632934
27	0x3dbc463e	0.09193085
28	0x3ca4c0bb	0.020111432
29	0x3dc10bc7	0.094260745
30	0xbc8b2954	-0.01698748
31	0xbcd9024e	-0.026490357
32	0xbdcaf2c0	-0.09909582
33	0xbd23e551	-0.040013615
34	0x3d8d919d	0.06912539
35	0xbdd3708a	-0.103241995
36	0xbd170362	-0.03686846
37	0x3d8386bb	0.06422182
38	0x3d78d7fe	0.06075286
39	0x3d1f6c6f	0.03892177
40	0xbcaaeda7	-0.020865275
41	0xbc02c2e9	-0.0079810405
42	0xbca3fbed	-0.020017589
43	0xbd1f28a3	-0.038857114
44	0x3d343018	0.04399118
45	0xbd130ea6	-0.03590264
46	0xbd728d41	-0.05921674
47	0x3cc3e65d	0.023913557
48	0xbd9c099d	-0.07619021
49	0xbcb848e7	-0.0224957
50	0x3d5ca272	0.053865857
51	0x3d215c45	0.039394636
52	0x3db7c93f	0.089739315
53	0xbd933d13	-0.07189383
54	0x3a704101	0.000916496
55	0xbcfeff27	-0.031127525
56	0xbd717d11	-0.058957163
57	0xbd72e2b6	-0.05929824
58	0x3cd98d60	0.02655667
59	0x3c34b1d5	0.011028727
60	0xbd5c63ac	-0.053805992
61	0xbd9829ef	-0.07429873
62	0xbdb2dc73	-0.087334536
63	0x3dd39312	0.10330786
64	0xbc932e8f	-0.017966537
65	0xbcc7ac98	-0.024374291
66	0xbd1ec3ba	-0.03876088
67	0xbd57f323	-0.052722108
68	0xbdc56c57	-0.09639805
69	0xbd7d7747	-0.06188133
70	0x3d83f39f	0.064429514
71	0x3cbd43fe	0.02310371
72	0xbd184e22	-0.03718389
73	0xbd232a51	-0.039835278
74	0x3d89e821	0.06733728
75	0x3d9b9d53	0.075983666
76	0x3dcffc10	0.10155499
77	0x3cfbe4ab	0.030748686
78	0x3d509671	0.050924722
79	0xbc0ac22d	-0.008469147
80	0xbd7c6b42	-0.061625727
81	0xbdd37dec	-0.10326752
82	0x3d837d7e	0.0642042
83	0xbc7b0469	-0.015320876
84	0x3d3162a2	0.043306954
85	0x3baa03b0	0.005188428
86	0xbdc97bce	-0.09838067
87	0xbd53d144	-0.051713243
88	0x3cf2ef3f	0.029655097
89	0xbcaec664	-0.021334834
90	0xbdcfeca1	-0.10152555
91	0x3d185292	0.03718812
92	0x3b8da37b	0.004322467
93	0xbd096708	-0.033545524
94	0x3d2f8b56	0.04285749
95	0x3cb8ba0f	0.022549657
96	0xbd1dbe0f	-0.038511332
97	0x3dc2911d	0.095003344
98	0x3d59c4a5	0.05316605
99	0x3c22f84e	0.009946896
100	0xbcc1461e	-0.023593005
101	0xbdbd60c7	-0.092469744
102	0x3d9fc963	0.07802083
103	0xbcf8ad92	-0.030356202
104	0xbd917c86	-0.07103829
105	0x3d83ae98	0.064297855
106	0x3d0b4ac9	0.034006868
107	0x3cbc899d	0.023014838
108	0xbca45d94	-0.020064153
109	0xbd03b469	-0.032154474
110	0x3c998e1e	0.018744525
111	0x3da8e24f	0.0824629
112	0x3c80d1af	0.015724985
113	0xbd4987fa	-0.049201943
114	0x3dd7b0e9	0.1053179
115	0x3b273e6f	0.002551939
116	0x3dab7477	0.08371823
117	0x3cbc8ea6	0.023017239
118	0x3dbb851e	0.091562495
119	0x3d6eb2c9	0.05827597
120	0xbd65452c	-0.05597417
121	0x3d935abd	0.07195041
122	0xbaacbe45	-0.0013179263
123	0xbdb10225	-0.08642987
124	0xbcc01ce9	-0.023451285
125	0xbdc614ce	-0.09671937
126	0xbd5b81c1	-0.05359054
127	0xbd96b50d	-0.073587514
128	0x3d95ebd4	0.07320371
129	0xbcacf3e7	-0.021112395
130	0xbc8c6ef6	-0.017142754
131	0x3d538a30	0.051645458
132	0x3d341169	0.043961916
133	0xbd8c67cd	-0.06855736
134	0x3d2310df	0.03981101
135	0x3d2d2564	0.042271987
136	0xbdafe97d	-0.08589456
137	0x3db6abf5	0.08919517
138	0xbd89315f	-0.0669887
139	0xbd332c9a	-0.043743707
140	0xbdb6f9b7	-0.08934348
141	0x3dbef482	0.0932398
142	0x3c887945	0.016659388
143	0x3dafe3b0	0.0858835
144	0x3bcf968c	0.0063350853
145	0x3d684aaa	0.05671183
146	0xbd0c4303	-0.034243595
147	0xbdad6d4e	-0.08468114
148	0x3c866fb6	0.01641069
149	0xbc23558e	-0.009969128
150	0xbc3a8ac8	-0.011385627
151	0xbd56c8e2	-0.05243767
152	0x3ad4b170	0.0016227197
153	0x3ceb1cd9	0.02870028
154	0x3d172eeb	0.03690998
155	0xbdafa5a1	-0.08576513
156	0x3d490b19	0.04908285
157	0x3c17fe12	0.009276884
158	0x3d924632	0.07142295
159	0x3d9557e4	0.072921544
160	0xbdad1041	-0.08450366
161	0x3dcc29e2	0.09968926
162	0xbdd6d31c	-0.10489485
163	0x3d7358f9	0.059411023
164	0x3bd28b2e	0.006425283
165	0x3d47ebf2	0.048809
166	0xbd6df1c2	-0.058091886
167	0x3d7f712f	0.0623638
168	0xbd58aa18	-0.05289659
169	0xbdc06053	-0.093933724
170	0x3d0ca73a	0.034339167
171	0x3d67c5ee	0.056585245
172	0x3dd3b708	0.10337645
173	0xbc43c708	-0.011949308
174	0x3dcd9ca8	0.100396454
175	0x3d8909b1	0.066913016
176	0xbd583b88	-0.05279115
177	0xbda82b69	-0.08211405
178	0x3d6eabda	0.05826936
179	0xbd6fb2d5	-0.058520157
180	0x3d456e75	0.048201043
181	0xbdb920d0	-0.090394616
182	0x3d9d369e	0.07676433
183	0x3d00cbb9	0.031444285
184	0xbc490921	-0.012270243
185	0x3d458393	0.048221182
186	0xbd9a0965	-0.07521323
187	0xbcbe36be	-0.023219462
188	0x3a6f5b36	0.0009130718
189	0xbd857a00	-0.0651741
190	0xbd005cea	-0.03133861
191	0xbd4bddbf	-0.04977202
192	0x3dc4a57a	0.09601875
193	0x3dadbece	0.08483659
194	0x3db0db3c	0.08635566
195	0x3da69314	0.08133522
196	0xbdd84192	-0.105593815
197	0x3cfbab8a	0.030721445
198	0x3d1db94f	0.038506802
199	0xbd9f2384	-0.07770446
200	0x3d2c67ce	0.042091183
201	0xbd6bbe0a	-0.057554282
202	0x3c86909b	0.016426375
203	0x3d0d02c1	0.034426454
204	0x3db95e23	0.09051158
205	0xbd63c7fd	-0.055610646
206	0xbdaa5c84	-0.08318427
207	0x3dbea754	0.09309259
208	0x3d247379	0.040149186
209	0x3d419f2b	0.047270935
210	0x3d0b0e81	0.03394938
211	0xbd275fa1	-0.040862683
212	0x3d755c01	0.059902195
213	0xbdc3e6e8	-0.09565526
214	0x3c3737e2	0.011182757
215	0x3d33c6ec	0.04389088
216	0x3d936ae6	0.07198124
217	0xbd57674f	-0.052588757
218	0xbd91e436	-0.07123606
219	0x3d21d369	0.039508257
220	0xbdab5bea	-0.083671406
221	0xbdb33784	-0.08750823
222	0xbdc2546b	-0.09488758
223	0xbd51add0	-0.05119115
224	0xbca4e85d	-0.02013033
225	0xbd824591	-0.06360925
226	0xbd3c36fb	-0.04595087
227	0xbdc1916b	-0.094515644
228	0x3d80b382	0.062842384
229	0xbcd8e241	-0.026475074
230	0xbd8c72df	-0.068578474
231	0x3cc902a1	0.024537386
232	0xbda7a9f5	-0.081867136
233	0x3d920e6e	0.071316585
234	0x3d70a66b	0.05875246
235	0xbdd7f7a3	-0.1054528
236	0xbdad4126	-0.08459692
237	0xbd92670c	-0.07148561
238	0xbd71d1dd	-0.05903803
239	0x3c3887e7	0.01126287
240	0xbdd9ec7b	-0.10640808
241	0xbda43bbf	-0.08019208
242	0x3d3d7100	0.046250343
243	0xbd141fa7	-0.036163
244	0xbd32b7e9	-0.04363242
245	0xbdb5c3db	-0.08875247
246	0x3d28277c	0.04105328
247	0x3bb9d8f7	0.005671616
248	0xbd2de6f1	-0.04245657
249	0xbd873322	-0.0660155
250	0x3ca8aa54	0.020589031
251	0x3cdbe59f	0.02684289
252	0x3d335b88	0.043788463
253	0x3ce6aa47	0.028157366
254	0xbc9dcd32	-0.019262884
255	0xbdace8a5	-0.08442811

conv2.bias f4 [10]
0	0xbdd28b9a	-0.10280533
1	0x3db23403	0.08701327
2	0x3c937ca2	0.018003765
3	0x3d3a0cb6	0.04542228
4	0x3c77ab73	0.01511656
5	0x3d7a3c0b	0.061092418
6	0x3d1a2fb2	0.037643142
7	0x3d4ed442	0.050495394
8	0x3d745f7c	0.059661373
9	0x3c77d33b	0.015126045

fc1.weight f4 [32, 10]
0	0x3e8b7543	0.272379
1	0x3e495b2a	0.19663683
2	0xbc1e9a40	-0.009680331
3	0xbe10a1ce	-0.14124224
4	0x3cabba70	0.020962924
5	0x3e7c314e	0.24628183
6	0x3e4d219a	0.20032349
7	0xbe0337fa	-0.12814322
8	0xbd873524	-0.06601933
9	0x3e00918a	0.12555519
10	0x3df40430	0.11914861
11	0x3e99719d	0.29969493
12	0x3e1cd466	0.15315399
13	0x3dcc80f3	0.099855326
14	0x3d95ae30	0.07308614
15	0xbe9888bf	-0.2979183
16	0xbdeebec3	-0.11657479
17	0x3d05ed7a	0.03269718
18	0xbe61ef28	-0.22063887
19	0xbe8df965	-0.27729335
20	0x3e5a81a2	0.21338513
21	0x3ddc43a8	0.10755092
22	0xbe82a79c	-0.255185
23	0x3c99c0f0	0.018768758
24	0x3e3eb40e	0.18623373
25	0x3e3a8b00	0.18217087
26	0x3e93db39	0.2887819
27	0xbe0009cf	-0.12503742
28	0x3e102fc8	0.14080727
29	0xbe835660	-0.25651836
30	0xbd1fc558	-0.03900656
31	0xbe46ce60	-0.19414663
32	0xbd6f8bde	-0.058482997
33	0x3e3d3ce0	0.18480253
34	0x3e216e52	0.1576474
35	0xbe26e64d	-0.1629879
36	0xbda0465e	-0.078259215
37	0xbd6e0699	-0.05811176
38	0xbded1332	-0.11575927
39	0xbe2fe6cb	-0.17177884
40	0x3e6dc74a	0.23220554
41	0x3e5b8f61	0.21441413
42	0x3e86a059	0.2629421
43	0xbe349c71	-0.17637803
44	0x3e6d207e	0.23156926
45	0xbdc83aa3	-0.09776809
46	0xbd9873aa	-0.07443936
47	0xbdb43e79	-0.08800978
48	0xbc92103e	-0.01783001
49	0xbe0ea0df	-0.13928555
50	0x3d312360	0.043246627
51	0xbe50b677	-0.20382105
52	0x3e052ea2	0.1300607
53	0xbe87c7bf	-0.26519582
54	0xbdeac858	-0.11463994
55	0xbe622c08	-0.22087109
56	0x3e5a6fe6	0.21331748
57	0x3e5e7a62	0.21726373
58	0xbe80c665	-0.25151363
59	0xbe30b2a4	-0.17255646
60	0x3e90e7d9	0.28301886
61	0x3dc2961b	0.095012866
62	0x3e5fa6d3	0.21840982
63	0xbe75f5a9	-0.24019493
64	0x3e12258a	0.14272133
65	0x3e4f8bbf	0.20268153
66	0xbd9611dd	-0.07327626
67	0xbc4894b9	-0.0122424895
68	0x3e6e5ad9	0.23276843
69	0x3db1e74b	0.08686694
70	0x3db9d3d4	0.09073606
71	0x3bfbb122	0.007681028
72	0xbe057a08	-0.13034832
73	0xbe414f80	-0.18877983
74	0x3ea19289	0.3155711
75	0xbcb12132	-0.021622274
76	0x3e8fcc46	0.28085536
77	0x3e86fb77	0.26363727
78	0xbe24cb9d	-0.16093297
79	0x3cbb76e2	0.022883836
80	0xbda5a824	-0.08088711
81	0xbbbc2640	-0.0057418644
82	0x3e556a4a	0.20841327
83	0x3e324f82	0.17413142
84	0xbe37ecbe	-0.17961404
85	0xbe203a6d	-0.15647288
86	0xbe660a6f	-0.22464918
87	0xbe897775	-0.2684895
88	0x3e4fba22	0.20285848
89	0xbe4817b6	-0.19540295
90	0x3b876b00	0.0041326284
91	0xb9e13c00	-0.00042960048
92	0x3d5d95e0	0.05409801
93	0xbc979110	-0.018501788
94	0x3e280a70	0.16410232
95	0x3d31e250	0.04342872
96	0x3e68348a	0.22676292
97	0x3d8bcc40	0.06826067
98	0xbb813e40	-0.0039441884
99	0x3d378ac0	0.044810057
100	0x3e57d35e	0.21076724
101	0x3d44aec4	0.048018232
102	0x3e6430ca	0.22284237
103	0xbcf44e3f	-0.029822467
104	0x3b33b180	0.002741903
105	0x3e882312	0.26589257
106	0xbe98dfb6	-0.29858178
107	0x3d0272c8	0.031847745
108	0x3e94059b	0.28910527
109	0xbe226ec3	-0.15862565
110	0xbd6eec38	-0.058330745
111	0xbc9648ae	-0.018345203
112	0x3dd5cdb1	0.10439623
113	0x3df63142	0.12021114
114	0x3d92b700	0.07163811
115	0x3dffe9ef	0.12495791
116	0xbe0ae928	-0.13565505
117	0x3e0908b8	0.13382232
118	0xbdcbbd09	-0.09948165
119	0x3e4ba874	0.19888479
120	0xbdbe124e	-0.09280835
121	0xbe89dddc	-0.26927078
122	0x3cb90260	0.02258414
123	0x3e287f6a	0.16454855
124	0xbc4b0e80	-0.012393594
125	0x3b8681c0	0.004104823
126	0x3a92de00	0.0011205077
127	0x3e2bdc52	0.16783264
128	0x3ccab210	0.02474311
129	0xbe90a3a8	-0.2824986
130	0xbe66ef5d	-0.22552247
131	0x3c9b6efd	0.018973822
132	0xbccf8231	-0.025330635
133	0x3e9adc82	0.3024636
134	0xbd983e7a	-0.074337915
135	0x3e77ff9b	0.242186
136	0xbe888bfe	-0.26669306
137	0xbe99cbe9	-0.30038384
138	0xbced2332	-0.028947446
139	0xbe4cfaf9	-0.20017613
140	0xbdbcdda0	-0.09221959
141	0x3d11e5c0	0.035619497
142	0xbe8c7168	-0.27430272
143	0x3e5e849a	0.21730271
144	0xbe4485f0	-0.19191718
145	0x3e7874da	0.24263325
146	0x3dd3b26c	0.10336766
147	0xbd72e9e8	-0.0593051
148	0xbe8db1b7	-0.27674648
149	0x3d566180	0.052339077
150	0xbe34e736	-0.17666325
151	0x3e8e247a	0.27762204
152	0xbe87a94b	-0.26496348
153	0xbda467a8	-0.08027583
154	0xbe32764b	-0.17427938
155	0xbe4e22a2	-0.20130399
156	0xbe28ce0b	-0.16484849
157	0xbce2a7df	-0.027667938
158	0x3cca80bf	0.024719594
159	0x3d5f3b7d	0.05450009
160	0x3e257862	0.16159204
161	0xbe038a79	-0.12845792
162	0xbe48d2a1	-0.19611599
163	0xbd8724b0	-0.065987945
164	0x3e989391	0.29800084
165	0xbd1cb994	-0.03826292
166	0xbe884d24	-0.26621354
167	0x3e7ec8f6	0.24881348
168	0x3d9ec861	0.07753063
169	0x3d61a741	0.055091146
170	0x3d5e5460	0.054279685
171	0x3e5cc64a	0.21560016
172	0xbe14d79a	-0.1453537
173	0x3e68728b	0.22699945
174	0x3e9bb0df	0.3040838
175	0xbdabbdec	-0.08385834
176	0x3e4c2ae7	0.19938241
177	0x3e2f055f	0.17091893
178	0x3e960972	0.2930408
179	0xbd98e6ab	-0.074658714
180	0xbe40a0b0	-0.18811297
181	0xbdf837df	-0.121200316
182	0xbe5d4bcf	-0.2161095
183	0x3c08388e	0.008314265
184	0x3e9c1a53	0.30488834
185	0x3e9c446f	0.3052096
186	0x3e74866d	0.23879404
187	0x3ce78dce	0.02826586
188	0x3b8d4ca3	0.0043121143
189	0x3e559e28	0.20861113
190	0x3e404706	0.18777093
191	0xbd008968	-0.03138104
192	0xbda3cc14	-0.07997909
193	0x3e000a7e	0.12504002
194	0xbc33c6e0	-0.010972708
195	0xbe637e76	-0.2221621
196	0xbe184f47	-0.14873992
197	0x3e834e5f	0.2564573
198	0x3e86d669	0.26335457
199	0xbdfc5ba2	-0.12322165
200	0xbd8afb38	-0.067861974
201	0xbe1a245c	-0.15052933
202	0xbdd01984	-0.10161117
203	0x3e95c6fb	0.29253373
204	0xbe900086	-0.281254
205	0x3e1d85d7	0.15383087
206	0xbe916f86	-0.28405398
207	0xbe158b26	-0.14603862
208	0xbd7707d1	-0.06031019
209	0x3cbd8139	0.023132907
210	0xbd525950	-0.051354706
211	0xbe14057c	-0.14455217
212	0xbe106f26	-0.141049
213	0xbe44f4fc	-0.19234079
214	0xbe6206b7	-0.22072874
215	0xbe49bebe	-0.19701669
216	0x3e9b424d	0.3032402
217	0xbe1892c6	-0.1489974
218	0xbe86a42a	-0.26297122
219	0x3e5e8f7a	0.2173442
220	0x3dfb4170	0.122683406
221	0x3e5ebe16	0.217522
222	0xbea10cb7	-0.31455013
223	0xbe9a1e2e	-0.3010115
224	0xbe65d3fe	-0.2244415
225	0xbe2a9688	-0.16658986
226	0xba368e00	-0.00069639087
227	0x3e0c11e0	0.13678694
228	0x3e3d9526	0.18513927
229	0xbe8b4226	-0.27198905
230	0x3e012460	0.12611532
231	0xbe3b4429	-0.1828772
232	0x3d94dd84	0.07268813
233	0x3dcb5604	0.099285156
234	0x3d4f48b8	0.05060646
235	0x3de522e8	0.111882985
236	0xbc8159b0	-0.015789837
237	0x3e55c7ba	0.20876971
238	0x3d871270	0.065953135
239	0x3e8dd8c3	0.2770444
240	0x3d8c630c	0.06854829
241	0xbe2b6bc4	-0.16740328
242	0x3e4ff47a	0.20308104
243	0x3c8c5810	0.017131835
244	0x3e9c7995	0.3056151
245	0xbd0f3ea8	-0.034971863
246	0x3ea031db	0.31288037
247	0xbe3d083a	-0.1846017
248	0x3e22bea6	0.15893039
249	0xbe7191b8	-0.23590744
250	0x3e5e4fb6	0.21710095
251	0x3d6a341e	0.05717861
252	0x3e37d8b4	0.1795376
253	0xbe8ba53f	-0.2727451
254	0xbea10f17	-0.31456825
255	0x3e1c1ba6	0.15244922

fc1.bias f4 [32]
0	0xbdee89cc	-0.116473764
1	0x3d018170	0.03161758
2	0xbe5ecda6	-0.21758136
3	0x3e8cbbba	0.27486974
4	0x3e8794aa	0.2648061
5	0xbd416398	-0.04721412
6	0x3e898a1b	0.2686318
7	0x3eb291a5	0.34876743
8	0xbc9ba760	-0.019000709
9	0xbdf07bcc	-0.117423624
10	0x3c9c80ce	0.019104388
11	0x3d75bcef	0.059994634
12	0xbe95dfd3	-0.29272327
13	0xbc91c87f	-0.0177958
14	0xbdea29da	-0.11433764
15	0x3e7ee47f	0.24891852
16	0xbb1c7f3f	-0.0023879556
17	0x3e2ef7cf	0.17086719
18	0x3e800657	0.25004837
19	0xbdcaf730	-0.099104285
20	0x3df001e5	0.11719111
21	0xbcdd99d0	-0.027050883
22	0xbe0d1e9c	-0.13781208
23	0xbe33a1a0	-0.17542124
24	0x3befc780	0.0073174834
25	0x3db7995c	0.08964798
26	0xbd63d018	-0.055618376
27	0x3d2257e3	0.039634597
28	0x3e1d818e	0.15381452
29	0x3e1551e8	0.14582026
30	0x3e224853	0.15847902
31	0x3d8d59e8	0.06901914

fc2.weight f4 [10, 32]
0	0xbe0b2730	-0.13589168
1	0xbdcb5f76	-0.09930317
2	0xbe063d72	-0.13109377
3	0x3e1585a0	0.14601755
4	0xbde7a589	-0.1131087
5	0xbe07252d	-0.13197775
6	0x3e2274fa	0.15864936
7	0x3e19ab52	0.1500676
8	0xbe2b1ef6	-0.1671103
9	0x3dd1312e	0.102144584
10	0xbcfacdd1	-0.030615719
11	0x3d51469b	0.051092725
12	0xbde2cb28	-0.11073905
13	0xbcdbd80d	-0.02683642
14	0x3d20ee4c	0.039289758
15	0x3e2dc25b	0.16968672
16	0x3ddb8860	0.10719371
17	0xbd64a75e	-0.055823676
18	0xbd9a96c7	-0.0754829
19	0xbc304050	-0.010757521
20	0x3d8a6af9	0.06758685
21	0x3dc6815a	0.096926406
22	0xbe3462e5	-0.1761585
23	0xbc6cae30	-0.014445826
24	0x3bccd7e0	0.0062513202
25	0xbd906926	-0.070513055
26	0x3e0ec6d5	0.13943036
27	0xbd213164	-0.039353743
28	0xbe1b3349	-0.15156282
29	0xbdb44d1a	-0.088037685
30	0x3ce51d82	0.027968172
31	0xbdf4bcb7	-0.11950057
32	0x3d256330	0.040377796
33	0x3e32b6e1	0.17452575
34	0x3bed2180	0.0072366595
35	0xbcffaf82	-0.031211618
36	0x3e3c08f4	0.1836279
37	0x3e05a2ad	0.13050337
38	0x3e09c763	0.13454966
39	0x3d032a31	0.03202266
40	0x3c046890	0.00808157
41	0xbe0c62a8	-0.1370951
42	0x3cb45d4c	0.022017144
43	0x3e354dad	0.17705412
44	0x3c191cb0	0.009345219
45	0xbe218b11	-0.15775706
46	0x3dc6b5da	0.09702654
47	0x3e30a4da	0.17250386
48	0x3e17e8ec	0.14834946
49	0x3ccb4faf	0.02481827
50	0x3d4c52a0	0.049883485
51	0x3cea5b10	0.028607875
52	0xbd8a9bed	-0.06768022
53	0xbcd34d38	-0.025793657
54	0x3e13ad3f	0.14421557
55	0x3c93bec0	0.018035293
56	0x3e2a9bad	0.16660948
57	0xbde678f7	-0.11253541
58	0xbcd3a4c8	-0.02583541
59	0x3ba87ad5	0.005141596
60	0xbdc9974b	-0.0984331
61	0x3e125df1	0.14293648
62	0x3e070034	0.13183671
63	0xbdb7686d	-0.089554645
64	0x3e1f79a7	0.1557375
65	0x3e2a0dcf	0.1660683
66	0xbdd4df62	-0.103941694
67	0xba60eba4	-0.0008580035
68	0x3e3ba189	0.1832334
69	0xbdeb098a	-0.11476429
70	0xbcaa9eda	-0.0208277
71	0xbde8760b	-0.1135064
72	0x3e029db3	0.1275547
73	0x3ceac280	0.028657198
74	0x3d995b14	0.07488075
75	0x3e03f3ad	0.12885924
76	0xbce5c4f0	-0.028048009
77	0xbe34f34a	-0.17670932
78	0x3c0dd430	0.0086565465
79	0xbbfd1d70	-0.0077244565
80	0x3d8352d1	0.0641228
81	0x3db6c0a9	0.08923466
82	0xbda61fa7	-0.08111506
83	0xbd8e9b12	-0.06963171
84	0x3de8330f	0.11337864
85	0x3d4e20dc	0.050324306
86	0x3d25deac	0.04049556
87	0x3da13166	0.0787075
88	0x3da85856	0.08219974
89	0xbe00ceec	-0.12578934
90	0x3c674660	0.0141159
91	0x3c950c2f	0.018194286
92	0xbe2bb27f	-0.1676731
93	0x3d253b70	0.040339887
94	0x3aa31420	0.0012441911
95	0x3e0eac74	0.13932973
96	0xbe2cc83e	-0.16873261
97	0x3e2bbcd8	0.16771257
98	0xbdb12c1b	-0.086509906
99	0x3de11111	0.10989583
100	0x3e0e555d	0.13899751
101	0xbcb3ace8	-0.021933034
102	0xbda7fc65	-0.08202437
103	0xbca70aaa	-0.020390827
104	0xbde1c9e4	-0.11024836
105	0x3cb30048	0.02185072
106	0x3d9c450f	0.076303594
107	0x3d2027df	0.039100524
108	0xbdd07d0c	-0.10180101
109	0x3dc5ce6b	0.09658512
110	0x3e261cbd	0.162219
111	0xbd401a51	-0.046900097
112	0x3dbbfc03	0.09178927
113	0xbb7acdf6	-0.0038269735
114	0x3da23d2d	0.079218246
115	0xbe01197a	-0.12607375
116	0xbe18280e	-0.1485903
117	0xbba472e0	-0.005018577
118	0xbe188666	-0.14895019
119	0x3d826ab8	0.06368011
120	0x3e297553	0.16548662
121	0xbd03a63b	-0.03214095
122	0x3adf8500	0.0017053187
123	0x3ce7b211	0.02828315
124	0xbda82454	-0.08210054
125	0xbbb34253	-0.005470553
126	0x3d4c1128	0.04982105
127	0x3e14eb65	0.14542921
128	0xbe162e90	-0.146662
129	0xbb071079	-0.0020609184
130	0xbe13aed4	-0.1442216
131	0xbc0db3ed	-0.008648855
132	0x3b927012	0.004468926
133	0xbd96f71f	-0.07371353
134	0x3df184eb	0.1179293
135	0x3e06de6c	0.13170785
136	0xbd8c72bc	-0.06857821
137	0xbcc9e448	-0.024644986
138	0xbd550201	-0.052003864
139	0x3bffabec	0.007802477
140	0x3d6ea944	0.058266893
141	0x3e275b54	0.16343433
142	0xbe260974	-0.16214544
143	0x3da342cc	0.07971725
144	0xbdda056f	-0.106455676
145	0xbe0a6827	-0.13516293
146	0x3e14cfbf	0.14532374
147	0xbd57b894	-0.05266626
148	0xbdc49559	-0.09598798
149	0x3d46a118	0.048493475
150	0xbd16aadc	-0.036784038
151	0xbe25b0d8	-0.16180742
152	0xbdbcd78b	-0.09220799
153	0xbd943e01	-0.07238389
154	0xbc61e340	-0.013787091
155	0xbdeba64e	-0.115063295
156	0xbe2b0697	-0.16701733
157	0x3dd0acd0	0.10189211
158	0xbe1617d3	-0.14657526
159	0xbc9ad312	-0.018899474
160	0x3e1b61a3	0.15173964
161	0xbd834f41	-0.06411601
162	0xbdef6b38	-0.11690372
163	0x3d54448c	0.051823184
164	0x3e24b9fd	0.16086574
165	0xbc9fb420	-0.01949507
166	0xbb79f30d	-0.0038139254
167	0x3db79784	0.08964446
168	0x3cb56578	0.02214311
169	0x3d0ab56c	0.033864424
170	0x3dc321d0	0.095279336
171	0x3da881ff	0.0822792
172	0xbe01a329	-0.12659897
173	0xbd8eee8e	-0.069790944
174	0x3df7524a	0.12076242
175	0x3d04d0b1	0.032425586
176	0x3d28d9c6	0.04122331
177	0x3e3462e3	0.17615847
178	0x3ded442a	0.11585267
179	0x3d9077da	0.0705411
180	0x3e2efd67	0.17088853
181	0xbe1f3b35	-0.1554993
182	0x3ce0bb48	0.027433053
183	0x3d3d0f4c	0.046157166
184	0xbcfbcec8	-0.03073825
185	0xbda5f511	-0.08103383
186	0x3d05a754	0.03263028
187	0xbe146208	-0.14490521
188	0xbd950662	-0.07276608
189	0x3e0becb1	0.1366451
190	0xbd7d47a2	-0.061835892
191	0xbd46d416	-0.048542105
192	0x3da263c6	0.079291865
193	0xbd36b997	-0.044610586
194	0x3cd4b0c8	0.025963202
195	0xbe35e35f	-0.17762516
196	0x3dcc9da3	0.09991004
197	0xbe2109f7	-0.15726458
198	0x3cbae39b	0.022813609
199	0xbe34c90a	-0.17654815
200	0xbe1b5d9e	-0.15172431
201	0x3e11a091	0.14221407
202	0xbdc74d2f	-0.097315185
203	0xbbc7b310	-0.006094344
204	0x3c010590	0.007874861
205	0x3e269295	0.16266854
206	0x3d672980	0.05643606
207	0x3daeeda0	0.08541417
208	0xbd9b062f	-0.07569539
209	0xbd7bb766	-0.0614542
210	0x3e02ac5a	0.1276106
211	0x3d84b8fe	0.06480597
212	0x3d349019	0.044082735
213	0xbe088244	-0.13330942
214	0xbe1078b3	-0.14108543
215	0x3d123204	0.03569223
216	0xbe07d814	-0.13266021
217	0x3dfd8712	0.12379278
218	0x3e16d639	0.14730157
219	0xbd96201f	-0.07330345
220	0xbdea1dda	-0.11431475
221	0x3e2f20fc	0.17102426
222	0xbdc1b1a1	-0.09457708
223	0xbe10f66a	-0.141565
224	0xbe036250	-0.12830472
225	0x3cfa691b	0.030567696
226	0x3d0c9cec	0.03432934
227	0x3de6d375	0.11270801
228	0x3e101c16	0.14073214
229	0x3d9a665e	0.07539056
230	0x3cc3e892	0.02391461
231	0x3e217771	0.1576822
232	0xbd956861	-0.07295299
233	0xbcfdf3a0	-0.030999959
234	0x3e192ca6	0.14958438
235	0xbd748459	-0.05969653
236	0x3dc219ba	0.09477563
237	0x3d1b6d3f	0.037945982
238	0x3d7f9524	0.06239809
239	0xbd2b03d3	-0.041751694
240	0xbe1a4479	-0.15065183
241	0x3dffe513	0.12494864
242	0x3e1343d1	0.14381339
243	0xbe0fbf54	-0.1403783
244	0xbda9c6f6	-0.08289902
245	0x3bf5a840	0.0074968636
246	0x3db361f2	0.08758916
247	0xbcccf9e8	-0.025021508
248	0xbd9eba60	-0.07750392
249	0x3e0c773c	0.1371736
250	0xbdb5bf87	-0.088744216
251	0x3e24151d	0.16023679
252	0x3b0c1012	0.0021371883
253	0x3dbdab27	0.0926116
254	0x3d28a49f	0.04117262
255	0x3cf4c3cc	0.02987852

fc2.bias f4 [10]
0	0xbc4b648e	-0.012414111
1	0xbde6aed3	-0.11263814
2	0x3d6db3ae	0.058032684
3	0x3d47d1f6	0.04878422
4	0x3d3c8a00	0.046030045
5	0xbdae1424	-0.08499935
6	0x3e0cbd5d	0.13744111
7	0xbdeca3b1	-0.11554659
8	0x3d800f9a	0.06252976
9	0xbbf70c10	-0.0075392798
