4/2/models/MyBestSmall.pt (torch_old, 8789 bytes, 8 tensors)

conv1.weight f4 [10, 3, 3, 3]
00000000: c2c7 d83e af7a 523d c00b da3d 5b8c 823e
00000010: d99b f0bd 32d4 423e 3b22 85bd df6b 0b3e
00000020: 6e21 ae3d f166 a8bc eda8 c9bd 02ac 3dbd
00000030: 14b1 58bd 2950 8cbe 7708 84bd 2591 5dbe
00000040: 70a1 80bd cb97 2b3d 371f 973e 2924 253c
00000050: 0b0a 9bbc 56f0 b9bd 4baf dbbd 79e9 b93c
00000060: 549d f2bd 23d4 3c3d fef9 a23e bd7b 253f
00000070: 644c a23e f66e 153f ccb6 c13e a839 9f3e
00000080: 429f 9a3e 0232 97be 560b f1be 9089 6dbe
00000090: 18b2 2cbe 0d7d 1dbe 56c8 983d 17dd d7be
000000a0: 1ff6 a3bd 0eb2 88be 3ad2 82be 6a5f b0be
000000b0: 39e2 6abe 818e bcbd b81c fabd 3107 873d
000000c0: a784 3bbe 6667 1bbe 89ac a0be b41a a6be
000000d0: 2a2c e2bd 3f71 5cbd b564 14be 06de 3abe
000000e0: 04da 98be 5525 dfbe c01f 42be 5007 5ebe
000000f0: c4e2 8ebe ce52 22be 3f26 3abe b79d 093e
00000100: f85f 18be d9c3 00bc 2e67 92bc 40a3 9039
00000110: b42a 09be dbbf b8bc 11d0 a63d 0b8a 95bd
00000120: 26e6 843d 8f55 27bc 058c e73d 3a8c e23c
00000130: dda4 453d ea12 013e a0a5 6bbd d177 993d
00000140: 397d 22be 766f 003f 66f8 fe3e 5f3b 7a3e
00000150: 2b22 1e3f 1df0 4b3e 735e 67bd 1f9d e93e
00000160: a48e e53e 35ec fe3e df47 71bd e275 49bf
00000170: f5f0 62bf 5490 56bd 734d 6abf b60e 8fbf
00000180: 3e08 2cbe 9a9b 0dbf e0dd 4cbf 8dec db3e
00000190: e374 513d d8cc c6be 49dd 253f fe40 21be
000001a0: f9b9 02bf a04c 803e f82c 233e 9aff 80bd
000001b0: a132 fdbc 486f a3bd 9923 ad3d e529 bebb
000001c0: 6e99 303d 2ab1 3ebe 18a8 47bd 1ddc a73d
000001d0: 3e65 833d acb5 af3d a854 42be 69e9 0bbe
000001e0: 6c92 f9bd 5c47 0ebd 61a3 f43d b3e2 98bd
000001f0: 0ce1 d23d ad23 55be d466 29be 0f95 8cbd
00000200: ad6b f53d 0621 653e a209 17be 04a0 06bc
00000210: 3f47 883e f04d 2f3e 1dae 5d3d 9a58 9e3f
00000220: c74c 7b3f 659c 893f 2ae0 4a3f d099 cd3e
00000230: 7bdf 423f 5d1e 313f d444 853e 9d9b 143f
00000240: fe2c 39bf e0a5 88bf dea9 eebe 65d1 7cbf
00000250: 2d9d a0bf 94bb 57bf 8fbc 4ebf 4e2f 53bf
00000260: 8cf0 4fbf c4d2 e33d 2c83 b3be 679c 353e
00000270: 39ac 52be 4d18 04bf 50c4 2f3d 3145 153e
00000280: 2f0e 52be 5435 8f3d 8d1e 1fbb 7844 693d
00000290: cdcd edbd d8c2 f93d c635 08be 99f2 4fbd
000002a0: c522 2dbe 77b2 21be 9e9c d3bd c886 f83c
000002b0: 8843 71bb 913a dabb 5802 873e 4f65 0c3e
000002c0: 9952 a43d 84c1 fdbc 1a6d 55be 4d8f 533d
000002d0: d109 283c ecd6 873d 6486 e3bd c67d 0c3e
000002e0: 8441 8bbd 7b55 683e f7c8 dfbd 491f 04be
000002f0: 9e0c 70bc 3505 34bf 7401 06bf b52b 56bf
00000300: de87 18bf e106 34bf b197 00bf 6859 13bf
00000310: 3fb0 a5be a79b babe 6b9e 1a3f fd74 0c3f
00000320: 6108 183f 0407 ac3e 9c57 1a3f 3496 ee3e
00000330: 2f85 283f 33d2 013f bb37 bd3e 90aa 09bc
00000340: 2375 8c3e 4c18 673e 5b1c c13d 4a8b 53bd
00000350: c1de 87be 291d 553e e7b5 693d bad6 28be
00000360: e59c fc3c 7fb4 47be 6d62 f3bd 2515 683d
00000370: bbed 57be d432 f23d 9a6a 91be c095 7ebe
00000380: 643d c53b 9941 2dbe 8783 aabc 4d87 2f3e
00000390: 44ba f43d 46c0 483e a17d 2dbc 4a94 3fbe
000003a0: c57f 283e e55e dfbc c4fb 45bd 9dd4 013e
000003b0: b1b5 4bbd 0798 1c3e 3ff0 433e c782 89bd
000003c0: 9c6c 07be d7a2 a43c c8c6 1b3e 4236 19bf
000003d0: abf6 4fbf e3f7 42bf aa3b 0ebf ce1a f8be
000003e0: a86b e9be 27b1 8dbe 8bd8 d3be a43d e6be
000003f0: fb36 0f3d ac68 4b3e 376a 943d 8772 6c3e
0.42339903 0.05138653 0.106467724 0.25497708 -0.117484756 0.19026259 -0.065006696 0.13615368
0.0850247 -0.020556899 -0.09846673 -0.046306618 -0.05290325 -0.27404907 -0.06446927 -0.216374
-0.06280792 0.041892808 0.29516003 0.010079422 -0.018925687 -0.090790436 -0.10726794 0.022694336
-0.11846414 0.046100747 0.31831354 0.64641935 0.31698906 0.5837244 0.37834775 0.31098676
0.3019963 -0.2953034 -0.4707896 -0.23197007 -0.16864812 -0.15379734 0.07460086 -0.42160866
-0.08005928 -0.26698345 -0.25551015 -0.34447795 -0.2293786 -0.09206868 -0.12212509 0.065931685
-0.18312322 -0.15176162 -0.31381634 -0.32442248 -0.1104358 -0.053818937 -0.14491542 -0.18248758
-0.29853833 -0.4358317 -0.18957424 -0.21682477 -0.27907383 -0.158519 -0.18178652 0.1343907
-0.14880359 -0.007859194 -0.017871466 0.0002758745 -0.13395196 -0.022552421 0.08145154 -0.0730172
0.0648921 -0.01021327 0.113060035 0.027654756 0.04825293 0.12604871 -0.057531 0.07493556
-0.15868081 0.50170076 0.49798888 0.24436711 0.61770886 0.19915815 -0.05648656 0.45627686
0.4483539 0.49789587 -0.058906432 -0.786955 -0.8864892 -0.052383736 -0.9152443 -1.1176364
-0.16800019 -0.55315554 -0.80026054 0.4295391 0.051136862 -0.38828158 0.6479078 -0.15747449
-0.5106502 0.2505846 0.15935123 -0.06298752 -0.03090793 -0.079802096 0.08454055 -0.005803334
0.043115072 -0.1862227 -0.04874429 0.0819628 0.06415795 0.08579573 -0.18977606 -0.13663258
-0.12186131 -0.034736022 0.119452246 -0.074651144 0.102968305 -0.2081439 -0.16543132 -0.06864368
0.11983428 0.22375879 -0.14749768 -0.008216862 0.26616856 0.17119575 0.054121125 1.2370789
0.9816403 1.0750853 0.792483 0.40156412 0.76122254 0.69186956 0.26029074 0.5804995
-0.7233428 -1.0675621 -0.46613973 -0.9875701 -1.2547966 -0.84270597 -0.8075647 -0.82494056
-0.8122642 0.11124185 -0.35061014 0.17735444 -0.2057351 -0.5159958 0.042911828 0.14577176
-0.20513223 0.069925934 -0.0024279684 0.056950063 -0.11611519 0.121953666 -0.13301763 -0.05076847
-0.16907795 -0.15790735 -0.10332607 0.030337706 -0.0036813933 -0.0066598137 0.26368976 0.13710521
0.08023567 -0.030976065 -0.208424 0.051650334 0.010256247 0.0663279 -0.11109617 0.13719854
-0.067996055 0.22688858 -0.10927003 -0.1290256 -0.014651446 -0.70320445 -0.5234597 -0.8366044
-0.59582317 -0.70322996 -0.5023146 -0.575583 -0.32361028 -0.36446878 0.60397977 0.5486601
0.59387785 0.33599102 0.6028993 0.4659897 0.6582822 0.50711364 0.3695658 -0.008402482
0.27433118 0.22567862 0.094292365 -0.05164651 -0.26537135 0.20811905 0.05705824 -0.16488162
0.030836532 -0.19502448 -0.118840076 0.05666079 -0.2108678 0.11826101 -0.28401643 -0.24861813
0.006019281 -0.16919555 -0.02081467 0.17141457 0.1194959 0.19604596 -0.010589034 -0.18708912
0.1645499 -0.027266929 -0.048335806 0.12678762 -0.04973382 0.15292369 0.19134615 -0.06714397
-0.13225025 0.02009718 0.15212548 -0.59848416 -0.8123576 -0.76159495 -0.5555979 -0.4845795
-0.45589948 -0.2767422 -0.41376147 -0.44968903 0.034964543 0.19864148 0.072468214 0.23090564

conv1.bias f4 [10]
00000000: 0b4c 62bf 8fa7 5abf 8648 95bd a35c 2abf
00000010: e83d cdbe 55fc c1bf 9b17 1dbf 184c 8e3f
00000020: 58a3 d8be 5a9d 703f
-0.8839728 -0.85411924 -0.072892234 -0.665476 -0.40086293 -1.5155131 -0.61364144 1.1116972
-0.4231212 0.939901

conv2.weight f4 [10, 10, 3, 3]
00000000: c798 99bd 20e8 4c3c 608b 193e 8c57 39be
00000010: 47bb fcbd a9e0 ab3d 5153 a6be eba6 47be
00000020: 1a59 143e a24a c13c b1c2 80be 64e9 e63d
00000030: 716a 393e b990 cdbe 6f4c 8fbe 48d9 923d
00000040: ca0c b2be 4d2a 173d d523 3abe 1445 223c
00000050: 82fe 92bd 91f5 b2bb 5972 e13d 4a31 6f3d
00000060: 52a1 e33c 887e 94bd b255 7bbd 6e6b 023d
00000070: c887 8d3b 7940 323d 641d c0be 7e92 aebe
00000080: a3e9 e7be d496 3ebd 9629 ddbc 5110 8bbe
00000090: 458a 383e 86ea 2b3f 7e2a f23e a884 223e
000000a0: de16 083f 76f5 733e e3bb 973d d185 f4bd
000000b0: bbb2 31bd ceae cabe eb43 d5be 753d 1dbd
000000c0: 3c1e 873c 5a28 90be b768 103f 0047 1dbd
000000d0: c5cb bcbc b82d 823e 1c9f 943e 616f 023e
000000e0: 6703 5a3e 3f8b 14be f9b2 a9bd 60bb e93e
000000f0: 9bb8 b0be 88b1 cdbe 2a5b 6bbd 2f31 b83e
00000100: 50c4 67be 265c 59be a28f 8bbe f3de 23be
00000110: 3153 f0be 907d 113e 4429 08be c3e7 8cbe
00000120: b0e9 473d a662 c3be 0524 7f3f f521 903d
00000130: 2429 dd3c 94ad d23c 4fff 2c3f 3ca0 a63e
00000140: 2e0d 4abf 9d35 a5be 3819 3bbe dffe c03e
00000150: e124 b2be 5915 4f3e 739b 523e 4333 c83d
00000160: 471e 0bbe 5a10 01be cc9f 883d fee2 d53b
00000170: 7b9b 68be 412b 983e 9a1f 753e 5afe bebe
00000180: 9b1f 23bb c468 803e 06d5 733e 8060 453e
00000190: 137a 43bf a524 c2be 70fc f33d 6117 c4be
000001a0: 3548 ebbd ab06 423e ea6a 283d cd41 e1be
000001b0: 700a 1e3f 0aa2 79be dc81 76be 8993 2e3f
000001c0: a424 3b3b 4975 eabe 7577 4c3e 85c8 213e
000001d0: 12e2 063f 32d7 dabe fa17 cdbd 8cbd 2abf
000001e0: 8573 afbd f898 473e ce15 a8bd 5663 bd3c
000001f0: 7925 8b3e 3a86 10be bef0 123e e7b9 d5bc
00000200: 4efa ec3b 5ecb e43d 1dc1 8f3d f1d0 39bd
00000210: b726 1bbe cb65 91be 4d34 babe 94ad 8ebf
00000220: 6f22 9ebf fd61 353f d851 12bf 39a5 edbe
00000230: dede fd3e b042 49be 7375 b43e e366 443f
00000240: c495 5abf 2f71 8b3e 456f 06be 0d66 edbe
00000250: e266 d53c bafb bdbe 804a 2cbd d691 8a3d
00000260: 14e2 29be f75d 3e3f 44c3 0a3f 0ad9 e6bd
00000270: 9340 80be 1ccd 25bc 9a3c c53c f104 f0be
00000280: c373 e3be 8fa3 37bf 22e5 ce3d 1070 923e
00000290: 1004 46bf 1e5a a3be 8471 343e ac03 c8bd
000002a0: 83eb 33be de8f cabe 39a3 2f3e 9d49 a93d
000002b0: 3527 1e3f 346b 673e a8d9 bfbd 1aba b53e
000002c0: 904b 17be 6664 cbbe 6d2d 6e3b c7e6 333d
000002d0: 76ca e93d 30a4 143c 06e2 813d 44d8 bc3e
000002e0: 87c2 5a3e 8585 1c3e 299d 763e 8298 423e
000002f0: cb41 3dbe dba8 92bd 5d2a a33d 7eb9 193f
00000300: e079 3d3e dff7 6dbd 8ef1 153f 0728 87bd
00000310: 3ade 19bf 89b6 c2be 3427 683e 9eef 9a3a
00000320: ef43 42be 4d6d 6dbd 13f6 31be ce80 a5be
00000330: 8baf be3e 6b37 843e f5df e8be 4644 bc3c
00000340: 6376 cfbe fc2e 42be a268 f93d a85f c93d
00000350: 6520 763c e434 563e 2f10 00be 64b3 f5bd
00000360: 2e54 4d3e bb87 783e e2dd ea3e 7654 c4bd
00000370: a6eb 653e ea42 3b3e a4e7 e8be 6a8e 913d
00000380: 36f8 4e3e 34f6 28be 2535 b6be f748 263e
00000390: 503d a8bf ee36 05bf ede6 d5be 5e4f 483f
000003a0: 767f 843d d29b b8bd 4368 ca3e 179d 353f
000003b0: 287a 2c3e 35d5 05bf cfb0 83be 5a31 f83d
000003c0: b906 793e 2900 6bbe ec8e bfbc 0849 32be
000003d0: 6eed 9bbe de84 85be 45ee ac3c 8f56 12bf
000003e0: 2741 9bbe 4e20 033e 90b9 41bd b14f 94be
000003f0: e8c6 7dbf f469 88bf 12bc bebe c12b f13e
-0.07499843 0.012506515 0.14994574 -0.18099803 -0.12340408 0.0839246 -0.3248544 -0.19497268
0.14487115 0.023595158 -0.25148538 0.112749845 0.1810701 -0.40149477 -0.27988002 0.07170349
-0.34775382 0.036905576 -0.18177731 0.009904165 -0.0717745 -0.0054614027 0.11008138 0.058396615
0.027786884 -0.072506964 -0.061361022 0.031840734 0.004319165 0.043518517 -0.37522423 -0.3409614
-0.45295438 -0.04653056 -0.026997369 -0.27160886 0.18021496 0.6715473 0.47298044 0.15870917
0.5315989 0.23824105 0.074088834 -0.11939586 -0.04338334 -0.3958649 -0.4165338 -0.038388688
0.016493909 -0.28155786 0.5640978 -0.03839779 -0.023046384 0.25425506 0.2902764 0.127378
0.2129036 -0.14506243 -0.082860895 0.45650768 -0.34515843 -0.40174508 -0.057459988 0.35975024
-0.22633481 -0.21226558 -0.2725802 -0.16003017 -0.4693847 0.14208055 -0.13296992 -0.2752057
0.048806846 -0.381612 0.99664336 0.07037727 0.026997156 0.025717534 0.6757707 0.32544124
-0.7892636 -0.32267466 -0.18271339 0.3769445 -0.3479376 0.20222987 0.20567112 0.097754024
-0.13585769 -0.12603894 0.06671104 0.0065273037 -0.22715561 0.297205 0.23937836 -0.3730343
-0.0024890664 0.2507993 0.2381173 0.19275093 -0.76358145 -0.37918583 0.11913383 -0.38299087
-0.11488382 0.18947856 0.041117586 -0.43995515 0.61734676 -0.24378219 -0.24072975 0.6819387
0.0028555775 -0.45792606 0.19967444 0.15799148 0.52688706 -0.42742306 -0.10014339 -0.66695476
-0.085669555 0.19491947 -0.08207284 0.023118656 0.27177027 -0.14113703 0.14349648 -0.026089622
0.007231987 0.11171602 0.07019255 -0.045365278 -0.15151487 -0.28397974 -0.36368027 -1.1146722
-1.2354258 0.70852643 -0.57156134 -0.46415117 0.49584097 -0.19654346 0.35245857 0.7671949
-0.85384774 0.2723479 -0.13128383 -0.4636692 0.026050035 -0.37106115 -0.042063236 0.06766097
-0.16590148 0.7436213 0.542042 -0.11271866 -0.25049266 -0.010119703 0.024076749 -0.4687877
-0.44424257 -0.71733946 0.10102297 0.28601122 -0.7734995 -0.3190469 0.17621428 -0.09766325
-0.1757031 -0.39562887 0.17152108 0.08265994 0.61778575 0.22599488 -0.093676865 0.35493547
-0.14774919 -0.39725035 0.0036342994 0.04392126 0.114155695 0.0090723485 0.06341939 0.36883748
0.21363269 0.15285309 0.2408339 0.1900349 -0.1848213 -0.07161113 0.079670645 0.60048664
0.18503523 -0.058097716 0.5857171 -0.065994315 -0.60104716 -0.38029888 0.22671205 0.0011820679
-0.18971227 -0.057965565 -0.17379026 -0.32324833 0.37243304 0.2582353 -0.45483366 0.022981774
-0.4052001 -0.18963236 0.1217816 0.09832698 0.015022372 0.20918614 -0.12506174 -0.11997107
0.20051643 0.24270527 0.45872408 -0.09586422 0.22453174 0.18287244 -0.45489228 0.071072415
0.20211872 -0.16500169 -0.3558742 0.16238771 -1.3143711 -0.5203694 -0.41777745 0.78246105
0.06469624 -0.09014095 0.3953267 0.70942825 0.16843474 -0.52278453 -0.25720832 0.12118788
0.2431897 -0.2294928 -0.02338358 -0.17410672 -0.30454582 -0.26077932 0.02110971 -0.5716333
-0.30323145 0.12805292 -0.047296107 -0.2896705 -0.9913163 -1.0657334 -0.3725286 0.47103694

conv2.bias f4 [10]
00000000: be8f 42be 8f2f fabd 6ee9 dcbe 3323 f4be
00000010: af41 253e ffee e13f 1593 a9be 1537 0fbf
00000020: 55f9 b9be 86bc b0bb
-0.19000146 -0.12216102 -0.43146843 -0.47683105 0.16138338 1.7651061 -0.33120027 -0.55943424
-0.36323038 -0.0053935675

fc1.weight f4 [32, 10]
00000000: 6670 843d 60f1 b4be f21c b4be 3efe 8dbe
00000010: 3909 0fbe 2cd3 e23e 28f7 1d3f a10f 103e
00000020: 5db8 f2bd e679 3a3d da35 a53e eb05 8d3e
00000030: 4cc5 aa3e 8e2c a8be ada1 9fbe 06f2 2bbf
00000040: d027 babe 2aac b73c 36b7 06bf dec1 9ebe
00000050: 0812 3c3d 1f75 313d fda8 25be 90d8 5fbe
00000060: 4e01 b23e d009 283f 5315 b63e 0484 22bf
00000070: ddc6 cebd c288 aabe de83 213f 259c 00bf
00000080: f8de cebd c0f5 033e ef6c 583e e687 9ebe
00000090: 3db9 8bbe 611d 80be 18a8 1bbf 3bba adbe
000000a0: d7ec f33e 7938 88be 72a0 983d 3756 dfbe
000000b0: 18a5 b33c 2384 55bf b6e9 6fbe f1c8 35bf
000000c0: 4691 143f 0953 6dbe 0009 8e37 92df a7be
000000d0: 48b9 4a3e 0aed 80be 1430 73be c8af 93be
000000e0: baf3 a0bb 923d bb3e 7853 6fbe 4e34 91be
000000f0: 3e42 a33e c98f 2a3e a37f 25bf 867e 1dbd
00000100: 447a 9f3e b184 cebe 4432 20bf 197b 04bf
00000110: 61a1 803e 8dab af3d f186 66bd 4dd3 abbd
00000120: b524 88bf af11 7dbf d03e d63e 2871 28bc
00000130: f518 2f3f 3630 aebe 4b37 fdbd 9261 57bd
00000140: 0c00 dbbe ed69 70bd d97e e93e ba9a 9a3d
00000150: 8122 e5be 3f1d dabe b9e4 74be c367 2abe
00000160: 643d c8bd c5a2 aebe 9211 953e bca8 273e
00000170: 3229 12bf ac51 053e d893 533e bf3c 813d
00000180: 0f8b 233f d19d 2e3e 5b95 1fbe 185a a3be
00000190: 7a5c 03be 842a 21be f8cb 3e3c 899a 1cbf
000001a0: 0c19 99bc a9f6 dd3e f57a cdbe 67d5 633e
000001b0: 869b d23e dd80 86bd dffb 0fbf b846 1abf
000001c0: ba93 843e 5d46 a93e a1d9 053f 2d09 3abd
000001d0: 8e58 18bf f647 babe c8fe b2be 768f 113d
000001e0: 648f 97be e8e1 c1be 9d56 073e 5d52 3dbd
000001f0: 5032 acbd 4f49 1fbe 039a b3bd 3d36 b13d
00000200: 68b1 283c ac54 9cbe 1ee5 1bbf 907a 98bd
00000210: 9d23 21be 318d c33e 0298 b5be 9b57 3e3d
00000220: 7e53 c1be 9d63 2bbf d0e2 933e ba62 04be
00000230: 8231 adbd 079a a23d d1f5 62be 7f9c a73d
00000240: 8b6e 59be 3a56 8b3e 0f55 073e 5ab9 a2be
00000250: 5940 d6be 2ac0 e23c e75f 21bf 0b3b b2bd
00000260: de66 25bf fbdf 30bd 91c2 13bf 3c86 a0be
00000270: 49ea 1cbf e013 a2be f6b7 e73c 24b7 2b3f
00000280: 3ca7 393e 1d7a babe 7146 26bf 8c5e 2a3e
00000290: 3d4c db3d 31a5 3c3d b059 9dbe 69fc c1be
000002a0: f040 2d3e 7739 66be 6bc8 50bd ee3e d1be
000002b0: 8e21 45bf a74c 6dbe f255 d6bd 9551 b6be
000002c0: 1ecf ff3d 3c57 193f 2331 c03e 904b 33be
000002d0: 0b6b 0cbf 41da 3abe 51ed 29bf 4ab5 babd
000002e0: 3fdb 0d3f 8301 8a3d 0b6a b43e 7a52 45bf
000002f0: 6b6b d83e e682 d3bd 389f a03e f7e8 06bf
00000300: 0a2f 03bf ede9 df3d 5387 d9be 52dd 26bf
00000310: a736 b7be e3e1 a63e 3be6 07be e283 10bf
00000320: 1cd5 a3bd 4768 d2be dd5f 98bd f125 e93e
00000330: 83b9 62bf 5ac7 b23e 17ab 91bc ec19 093d
00000340: ec72 82be dc18 1abe d77c 5fbd 61ed 1ebe
00000350: 3922 12be 984b 4fbe 906d 81be c78e 82be
00000360: 82b6 2c3e 5f3e 34be cc1e 92be 41e0 e13d
00000370: b295 e13c 36f1 753e 928c 28bf cd43 88bd
00000380: d9c8 96be 8cd2 11be 1e62 9dbd bec7 b63d
00000390: 7cb3 2839 3ad7 99be 7595 143e 4b41 33bf
000003a0: ac4b d43e 16e2 42bd a01a 973e 25dd 243d
000003b0: 50b2 113d 3e85 9ebe 99ba 37be f54f 673e
000003c0: 3c1a ddbd 754c 24bf 839a 5a3e 5d39 7cbd
000003d0: b67d a23e 5721 dc3d e01e aa3e 9aa2 85be
000003e0: c849 5e3d 5f26 55bd 986a 62be c31b 1cbc
000003f0: c94c 96bd 6d60 c6be 34bb b4be 8804 293f
0.06466751 -0.35340405 -0.35178334 -0.27733034 -0.13968362 0.44301736 0.61705256 0.14068462
-0.11851571 0.045526408 0.32267648 0.27543578 0.3335365 -0.32846493 -0.31178036 -0.67166173
-0.363585 0.022420961 -0.5262331 -0.31007284 0.045915633 0.043324586 -0.16177745 -0.21859956
0.3476662 0.6563997 0.35563144 -0.6348269 -0.10096524 -0.33307463 0.6309184 -0.5023826
-0.10101122 0.12886715 0.21135305 -0.30963057 -0.27289763 -0.25022414 -0.60803366 -0.33931145
0.47641632 -0.26605585 0.074524775 -0.43620464 0.021929309 -0.8340475 -0.23428997 -0.7100974
0.5803417 -0.23176207 1.693191e-05 -0.32787758 0.19797242 -0.25180846 -0.23748809 -0.28845048
-0.004911867 0.36570412 -0.23371685 -0.28360218 0.31886476 0.16656412 -0.64647883 -0.03845074
0.3114797 -0.4033561 -0.625767 -0.5175033 0.25123122 0.085776426 -0.056281034 -0.08389912
-1.0636202 -0.9885511 0.41844797 -0.010280885 0.68397456 -0.34021157 -0.12364062 -0.052583285
-0.42773473 -0.05869477 0.4560459 0.07549043 -0.44752887 -0.42600438 -0.23915376 -0.16641144
-0.09777334 -0.34108558 0.29114968 0.16372961 -0.5709411 0.13019437 0.20661867 0.063104145
0.6388406 0.1705239 -0.15584318 -0.31904674 -0.12828246 -0.15738875 0.01164531 -0.611733
-0.018688701 0.4335225 -0.4013287 0.22249375 0.4113428 -0.065675475 -0.562437 -0.6026416
0.25893956 0.33061495 0.522852 -0.045418907 -0.59510124 -0.36383027 -0.34960008 0.035537206
-0.29601586 -0.37867665 0.13216634 -0.046221126 -0.08408034 -0.15555309 -0.0876961 0.08652923
0.010296203 -0.3053335 -0.6089648 -0.07445252 -0.15736242 0.38193658 -0.35467535 0.046470266
-0.37759012 -0.6694887 0.28883982 -0.12928286 -0.084567085 0.07939535 -0.22164084 0.08184146
-0.21233575 0.27214223 0.13216041 -0.31782037 -0.41845968 0.027679522 -0.6303696 -0.08702668
-0.6461009 -0.043182354 -0.5771876 -0.31352413 -0.6129499 -0.31655788 0.028285962 0.67076325
0.18130201 -0.3642129 -0.64951235 0.1663763 0.10707901 0.046055976 -0.3073249 -0.37887886
0.16919303 -0.22482859 -0.050972383 -0.40868324 -0.77004325 -0.23173772 -0.104656115 -0.35609117
0.12490676 0.59898734 0.37537488 -0.17509294 -0.54850835 -0.1824732 -0.6637774 -0.091166094
0.5541267 0.067385696 0.35237154 -0.77078974 0.42269453 -0.10327701 0.31371474 -0.52699226
-0.5124365 0.1093329 -0.42486057 -0.6518146 -0.35783884 0.32594213 -0.1327142 -0.5645124
-0.07999632 -0.41095182 -0.074401595 0.4553676 -0.8856432 0.34917718 -0.017781777 0.033471987
-0.25478303 -0.15048546 -0.054562416 -0.1552024 -0.14270867 -0.2024368 -0.25278902 -0.25499555
0.16866496 -0.17601918 -0.2853912 0.11029101 0.0275372 0.24017796 -0.65839493 -0.06653557
-0.2945011 -0.14240474 -0.0768473 0.089248165 0.00016088592 -0.30047017 0.14510138 -0.70021504
0.41463983 -0.047578894 0.295125 0.040249962 0.035570443 -0.3096103 -0.17942275 0.22589095
-0.107960194 -0.64179164 0.21348004 -0.061578143 0.31736535 0.107485466 0.3322668 -0.26100618
0.054269582 -0.052038547 -0.22110975 -0.009528103 -0.07338864 -0.38745442 -0.35299075 0.6602254

fc1.bias f4 [32]
00000000: 083b 27be 5365 fbbd ed09 bcbe edce 1d3e
00000010: a382 e23e f969 12be 808a e53e 7926 df3e
00000020: 4f93 f6bd 6c80 d0be 888f 06be 8ac7 78be
00000030: b6c2 a1be 0416 f63d 9adb 4cbe 696a 9d3e
00000040: 6bd1 f83b 4f18 483e 9c7b d23e d06c a2bd
00000050: 8e27 653e 2093 9dbd b220 80be b968 8dbe
00000060: 934b 93be 7368 373e 3e46 a5bd 9797 2cbd
00000070: 1aab b13e 90c9 533e 9b05 483e 6235 ab3d
-0.16331112 -0.122751854 -0.36726323 0.15410967 0.44240293 -0.14298238 0.4483223 0.4358404
-0.12039816 -0.40722978 -0.1314069 -0.24294868 -0.31593865 0.12015918 -0.20005646 0.30745247
0.007593324 0.19540523 0.4110993 -0.079309106 0.2237837 -0.076940775 -0.25024945 -0.2761896
-0.28768596 0.17910938 -0.08070038 -0.042136755 0.34700853 0.20682359 0.19533388 0.08359791

fc2.weight f4 [10, 32]
00000000: 7770 89be ad32 c8be f07f 74be 46ae 9d3e
00000010: fa9c 91be 8a81 3bbe 3e67 e73d 020e dcbd
00000020: 3757 7fbe 4d37 a5bc d0fb d0bd b23c 843e
00000030: 0977 c5bc 24c5 7d3e 6954 cebd 6a7e 84bd
00000040: eeba c73e f303 5fbd 86cb 34be 9fae a33e
00000050: 0bf6 0c3f 0169 b63d b07c a0be 3f2f c63c
00000060: 0030 1ebe 0321 b3be 515c 95bd 7eb2 88be
00000070: 1361 8bbe 804c 98be ca94 8e3d 0960 92be
00000080: 10b2 4abe 7b3a 1b3e 76f8 2cbe b734 e13d
00000090: 2bf7 8e3e fcaa e13d 6d3b e43e 5840 c53e
000000a0: f3cb d63e f2a8 8abe 840c cbbd e16b 1c3d
000000b0: d3cc ba3d 0978 6d3d 9ae1 403c 3f8a 113e
000000c0: e44c a13e 7b88 333e ea2d 343f d238 aabe
000000d0: 7633 c1be 325d 09bd c3de acbd 8a86 e6be
000000e0: 1400 58bd 1e44 bbbe e148 21be 3221 933e
000000f0: bf40 85be a983 7fbe 1d1d cc3d c70b 09be
00000100: f86e 8f3d 0794 b9bd c161 01be 2c87 c8bd
00000110: 874b 92bd f53f 553e 7f7c a1be 7777 30be
00000120: 93b8 3d3e bf86 523e 4229 f73d 43d0 e63c
00000130: 3382 f63d e861 d6be 92c7 7abd e1f5 80be
00000140: 30fc 4b3e 95ec ef3e 9af8 d9be 9209 d63e
00000150: 8b68 c63d 3dcd f73c 212b 1ebe a599 b83d
00000160: e732 533d d4b4 1dbe 079b 54bd c0f1 5d3e
00000170: 4985 d3be 1216 7ebe 1458 bdbe 82bd 24bd
00000180: 6afc 413e 27d1 ea3c 4e2e f0bd d870 213e
00000190: 35db 8d3d d30c 5abd f563 ebbe 6692 6dbe
000001a0: a949 0ebe 2047 9ebe aa6b 9a3e 9625 063f
000001b0: 7a16 74be 5c12 1cbe e1ed c63d 34a9 02bf
000001c0: 8ad4 adbe 05a1 f4be f22f e1be 19f0 81be
000001d0: 54a0 87be 74a4 7f3c 27f2 58be 1d34 063f
000001e0: 3422 be3e a1fe cc3e 56c0 083e 645e 1cbe
000001f0: c89a cb3e 1bd3 163f 3bae b4be 522d 953d
00000200: 21a7 a8be 09bc 8ebe abf4 7cbe 6955 16be
00000210: 1979 0fbf fa03 8abe 1157 cc3d 91df 83be
00000220: d5ae 2dbc b733 923c 6ca3 63be 6e75 a83e
00000230: 1bd9 e6bc 583c fc3e 602e 67bd 8628 f53e
00000240: af12 cb3e bdfa 0f3e e182 5e3e f0c7 8bba
00000250: a88f ec3e e14d 233d 65da e9bd 0f31 c9bd
00000260: 5712 b4bd ab48 8ebe 5cc7 38be bcfd 0639
00000270: e4fe d2be 135b 0dbe e57c 48bd 6291 1a3c
00000280: 85a4 6b3e eece 1e3f 32b6 8e3e e5e9 dabd
00000290: 6b09 4f3e a871 033e 323d 0b3f fcaf 643f
000002a0: 0559 23be a183 9d3e e7eb 4ebe d8b6 57be
000002b0: b3bd 15be f0b9 02bf 901d 01bd 6f6f 95be
000002c0: b10f c23d 0b69 e13d 17db 573f 96de 3bbe
000002d0: a618 edbd 3c30 12be 663b 79bd de3a b2be
000002e0: f6b2 4f3d 6331 9abe 6aee b5bd 2b5a 26be
000002f0: 4590 30be 7506 aabe 8979 f83c a6db 3cbe
00000300: 3606 89bd ab5c c9bc e836 1a3e dd8d 6f3d
00000310: fd61 8a3d 600d 183d 8639 2f3e 622c fbbd
00000320: 842a 7bbd ff47 27be 8d7c bf3e dc5e cbbb
00000330: 0ad7 773d 277d 883e 38d7 223e e2de 513e
00000340: 41aa c4be 9f6a 89be fc3c d1be f102 933e
00000350: a0e2 c33d 17fd 05be e6c9 b13d 4f92 b33d
00000360: 5459 bebe 57dc 273f 9931 aa3e c490 793d
00000370: 3141 303c 8631 1b3f 7c7e 8f3e 1776 4c3e
00000380: 0d8b a6be 0c6d 953e d23a 09be 1559 403e
00000390: 5e00 373e 52dc e7bc 5c51 1f3d 8231 83be
000003a0: 9036 3fbb 914b 5dbe 7121 113d 20a5 923c
000003b0: ead7 ca3d bcf6 ad3e e80d f53d 6736 d93e
000003c0: 56f5 e6bd 68e1 d33e 272e 4fbe a6da 823d
000003d0: 8a15 3bbe 7298 9cbc 2526 673d c4d2 d33d
000003e0: 9a36 98be 130a 923e df50 1d3f 7953 043e
000003f0: 44cb 193e bf9e 313f 553e 9c3e a5c5 073e
-0.26843616 -0.39101163 -0.2387693 0.30797023 -0.28440076 -0.18311134 0.11298989 -0.10744859
-0.24935614 -0.020167971 -0.102042794 0.25827557 -0.024104612 0.24782234 -0.10074694 -0.06469424
0.39009804 -0.054447126 -0.17655763 0.31969163 0.5506293 0.08906747 -0.3134513 0.02419245
-0.15447998 -0.34986123 -0.072929986 -0.2669868 -0.272225 -0.29745865 0.06961973 -0.28588894
-0.19794488 0.15159027 -0.16891655 0.10996383 0.2792295 0.11018941 0.44576588 0.38525653
0.41952476 -0.2708202 -0.099144965 0.03818882 0.09121098 0.057975803 0.011772538 0.14212893
0.31503975 0.17532532 0.7038256 -0.33246475 -0.37734574 -0.033536144 -0.08440926 -0.4502452
-0.05273445 -0.36575407 -0.15750457 0.28736264 -0.2602596 -0.24952568 0.099664904 -0.13383399
0.070035875 -0.09061437 -0.12634946 -0.09791407 -0.07143312 0.20825179 -0.31540295 -0.17233072
0.1852744 0.20559214 0.12068416 0.028175479 0.12036552 -0.41871572 -0.06122548 -0.2518759
0.1992042 0.46860185 -0.4257248 0.41804177 0.09687909 0.030249232 -0.1544614 0.0901368
0.051562216 -0.15401012 -0.051905658 0.21674252 -0.41312626 -0.24813107 -0.3698126 -0.04021979
0.18943945 0.028664185 -0.11727582 0.15765703 0.06926576 -0.053234886 -0.459747 -0.23200378
-0.13895287 -0.3091364 0.30160266 0.524011 -0.23836699 -0.15241379 0.097133406 -0.51039433
-0.33951217 -0.47779098 -0.43981892 -0.25378492 -0.26489508 0.0156031735 -0.21186124 0.5242327
0.3713547 0.40038016 0.1335462 -0.15270382 0.39766526 0.5891587 -0.35289177 0.07284035
-0.3294001 -0.27877834 -0.24702708 -0.14681019 -0.56044155 -0.2695616 0.09977544 -0.25756505
-0.010600765 0.017846925 -0.22230309 0.32902092 -0.028179696 0.4926479 -0.05644071 0.4788248
0.39662692 0.14060493 0.21729614 -0.0010664444 0.4620335 0.039869193 -0.114186086 -0.0982381
-0.087925605 -0.27789816 -0.180448 0.00012873759 -0.4121009 -0.13804273 -0.048947234 0.009434076
0.23011978 0.620345 0.2787338 -0.10689143 0.20218436 0.12836325 0.5439025 0.8933103
-0.15951927 0.30764487 -0.20207177 -0.21065843 -0.14623146 -0.5106497 -0.031522334 -0.2918658
0.09475649 0.110063635 0.8431868 -0.18346629 -0.11576967 -0.14276212 -0.060847662 -0.34810537
0.05070778 -0.30115804 -0.088833645 -0.16245334 -0.17242534 -0.3320805 0.03033139 -0.18443164
-0.06690638 -0.02458032 0.15060008 0.0584849 0.06756971 0.03712213 0.17111787 -0.12264325
-0.061319843 -0.16336058 0.37399712 -0.0062063765 0.06050781 0.26657984 0.15902412 0.2049518
-0.38411143 -0.26839158 -0.4086684 0.28713182 0.0956471 -0.13084827 0.08681087 0.087681405
-0.37177527 0.65570587 0.33240965 0.060929075 0.01075773 0.6062244 0.28026187 0.19966923
-0.32527962 0.2918476 -0.13401344 0.18783982 0.17871234 -0.0283033 0.03889595 -0.2562371
-0.002917681 -0.21610858 0.035432283 0.017901003 0.099044636 0.33977306 0.11965543 0.42424318
-0.11277263 0.4138291 -0.2023245 0.0638936 -0.18269935 -0.01911566 0.05643286 0.10342935
-0.29729158 0.2852331 0.61451524 0.12922467 0.15018946 0.6938285 0.30516306 0.13258989

fc2.bias f4 [10]
00000000: a367 86be c3df 783e 6629 eebe 0eaf ec3d
00000010: 8010 be3e 58d8 f6be 96ad 91bd c763 05bf
00000020: 1a6d 323e 708e a53e
-0.26250944 0.24304108 -0.4651596 0.115568265 0.37121964 -0.48211932 -0.07113187 -0.52105373
0.17424431 0.32335234
